node {
  name: "anchors"
  op: "Const"
  attr {
    key: "dtype"
    value {
      type: DT_FLOAT
    }
  }
  attr {
    key: "value"
    value {
      tensor {
        dtype: DT_FLOAT
        tensor_shape {
          dim {
            size: 2034
          }
          dim {
            size: 4
          }
        }
      }
    }
  }
}
node {
  name: "scale_logits/y"
  op: "Const"
  attr {
    key: "dtype"
    value {
      type: DT_FLOAT
    }
  }
  attr {
    key: "value"
    value {
      tensor {
        dtype: DT_FLOAT
        tensor_shape {
        }
        float_val: 1
      }
    }
  }
}
node {
  name: "concat_1/axis"
  op: "Const"
  attr {
    key: "dtype"
    value {
      type: DT_INT32
    }
  }
  attr {
    key: "value"
    value {
      tensor {
        dtype: DT_INT32
        tensor_shape {
        }
        int_val: 1
      }
    }
  }
}
node {
  name: "concat/axis"
  op: "Const"
  attr {
    key: "dtype"
    value {
      type: DT_INT32
    }
  }
  attr {
    key: "value"
    value {
      tensor {
        dtype: DT_INT32
        tensor_shape {
        }
        int_val: 1
      }
    }
  }
}
node {
  name: "BoxPredictor_5/Reshape_1/shape"
  op: "Const"
  attr {
    key: "dtype"
    value {
      type: DT_INT32
    }
  }
  attr {
    key: "value"
    value {
      tensor {
        dtype: DT_INT32
        tensor_shape {
          dim {
            size: 3
          }
        }
      }
    }
  }
}
node {
  name: "BoxPredictor_5/ClassPredictor/biases"
  op: "Const"
  attr {
    key: "dtype"
    value {
      type: DT_FLOAT
    }
  }
  attr {
    key: "value"
    value {
      tensor {
        dtype: DT_FLOAT
        tensor_shape {
          dim {
            size: 546
          }
        }
      }
    }
  }
}
node {
  name: "BoxPredictor_5/ClassPredictor/biases/read"
  op: "Identity"
  input: "BoxPredictor_5/ClassPredictor/biases"
  attr {
    key: "T"
    value {
      type: DT_FLOAT
    }
  }
  attr {
    key: "_class"
    value {
      list {
        s: "loc:@BoxPredictor_5/ClassPredictor/biases"
      }
    }
  }
}
node {
  name: "BoxPredictor_5/ClassPredictor/weights"
  op: "Const"
  attr {
    key: "dtype"
    value {
      type: DT_FLOAT
    }
  }
  attr {
    key: "value"
    value {
      tensor {
        dtype: DT_FLOAT
        tensor_shape {
          dim {
            size: 1
          }
          dim {
            size: 1
          }
          dim {
            size: 128
          }
          dim {
            size: 546
          }
        }
      }
    }
  }
}
node {
  name: "BoxPredictor_5/ClassPredictor/weights/read"
  op: "Identity"
  input: "BoxPredictor_5/ClassPredictor/weights"
  attr {
    key: "T"
    value {
      type: DT_FLOAT
    }
  }
  attr {
    key: "_class"
    value {
      list {
        s: "loc:@BoxPredictor_5/ClassPredictor/weights"
      }
    }
  }
}
node {
  name: "BoxPredictor_5/ClassPredictor_depthwise/BatchNorm/moving_variance"
  op: "Const"
  attr {
    key: "dtype"
    value {
      type: DT_FLOAT
    }
  }
  attr {
    key: "value"
    value {
      tensor {
        dtype: DT_FLOAT
        tensor_shape {
          dim {
            size: 128
          }
        }
      }
    }
  }
}
node {
  name: "BoxPredictor_5/ClassPredictor_depthwise/BatchNorm/moving_variance/read"
  op: "Identity"
  input: "BoxPredictor_5/ClassPredictor_depthwise/BatchNorm/moving_variance"
  attr {
    key: "T"
    value {
      type: DT_FLOAT
    }
  }
  attr {
    key: "_class"
    value {
      list {
        s: "loc:@BoxPredictor_5/ClassPredictor_depthwise/BatchNorm/moving_variance"
      }
    }
  }
}
node {
  name: "BoxPredictor_5/ClassPredictor_depthwise/BatchNorm/moving_mean"
  op: "Const"
  attr {
    key: "dtype"
    value {
      type: DT_FLOAT
    }
  }
  attr {
    key: "value"
    value {
      tensor {
        dtype: DT_FLOAT
        tensor_shape {
          dim {
            size: 128
          }
        }
      }
    }
  }
}
node {
  name: "BoxPredictor_5/ClassPredictor_depthwise/BatchNorm/moving_mean/read"
  op: "Identity"
  input: "BoxPredictor_5/ClassPredictor_depthwise/BatchNorm/moving_mean"
  attr {
    key: "T"
    value {
      type: DT_FLOAT
    }
  }
  attr {
    key: "_class"
    value {
      list {
        s: "loc:@BoxPredictor_5/ClassPredictor_depthwise/BatchNorm/moving_mean"
      }
    }
  }
}
node {
  name: "BoxPredictor_5/ClassPredictor_depthwise/BatchNorm/gamma"
  op: "Const"
  attr {
    key: "dtype"
    value {
      type: DT_FLOAT
    }
  }
  attr {
    key: "value"
    value {
      tensor {
        dtype: DT_FLOAT
        tensor_shape {
          dim {
            size: 128
          }
        }
      }
    }
  }
}
node {
  name: "BoxPredictor_5/ClassPredictor_depthwise/BatchNorm/gamma/read"
  op: "Identity"
  input: "BoxPredictor_5/ClassPredictor_depthwise/BatchNorm/gamma"
  attr {
    key: "T"
    value {
      type: DT_FLOAT
    }
  }
  attr {
    key: "_class"
    value {
      list {
        s: "loc:@BoxPredictor_5/ClassPredictor_depthwise/BatchNorm/gamma"
      }
    }
  }
}
node {
  name: "BoxPredictor_5/ClassPredictor_depthwise/BatchNorm/beta"
  op: "Const"
  attr {
    key: "dtype"
    value {
      type: DT_FLOAT
    }
  }
  attr {
    key: "value"
    value {
      tensor {
        dtype: DT_FLOAT
        tensor_shape {
          dim {
            size: 128
          }
        }
      }
    }
  }
}
node {
  name: "BoxPredictor_5/ClassPredictor_depthwise/BatchNorm/beta/read"
  op: "Identity"
  input: "BoxPredictor_5/ClassPredictor_depthwise/BatchNorm/beta"
  attr {
    key: "T"
    value {
      type: DT_FLOAT
    }
  }
  attr {
    key: "_class"
    value {
      list {
        s: "loc:@BoxPredictor_5/ClassPredictor_depthwise/BatchNorm/beta"
      }
    }
  }
}
node {
  name: "BoxPredictor_5/ClassPredictor_depthwise/depthwise_weights"
  op: "Const"
  attr {
    key: "dtype"
    value {
      type: DT_FLOAT
    }
  }
  attr {
    key: "value"
    value {
      tensor {
        dtype: DT_FLOAT
        tensor_shape {
          dim {
            size: 3
          }
          dim {
            size: 3
          }
          dim {
            size: 128
          }
          dim {
            size: 1
          }
        }
      }
    }
  }
}
node {
  name: "BoxPredictor_5/ClassPredictor_depthwise/depthwise_weights/read"
  op: "Identity"
  input: "BoxPredictor_5/ClassPredictor_depthwise/depthwise_weights"
  attr {
    key: "T"
    value {
      type: DT_FLOAT
    }
  }
  attr {
    key: "_class"
    value {
      list {
        s: "loc:@BoxPredictor_5/ClassPredictor_depthwise/depthwise_weights"
      }
    }
  }
}
node {
  name: "BoxPredictor_5/Reshape/shape"
  op: "Const"
  attr {
    key: "dtype"
    value {
      type: DT_INT32
    }
  }
  attr {
    key: "value"
    value {
      tensor {
        dtype: DT_INT32
        tensor_shape {
          dim {
            size: 4
          }
        }
      }
    }
  }
}
node {
  name: "BoxPredictor_5/BoxEncodingPredictor/biases"
  op: "Const"
  attr {
    key: "dtype"
    value {
      type: DT_FLOAT
    }
  }
  attr {
    key: "value"
    value {
      tensor {
        dtype: DT_FLOAT
        tensor_shape {
          dim {
            size: 24
          }
        }
      }
    }
  }
}
node {
  name: "BoxPredictor_5/BoxEncodingPredictor/biases/read"
  op: "Identity"
  input: "BoxPredictor_5/BoxEncodingPredictor/biases"
  attr {
    key: "T"
    value {
      type: DT_FLOAT
    }
  }
  attr {
    key: "_class"
    value {
      list {
        s: "loc:@BoxPredictor_5/BoxEncodingPredictor/biases"
      }
    }
  }
}
node {
  name: "BoxPredictor_5/BoxEncodingPredictor/weights"
  op: "Const"
  attr {
    key: "dtype"
    value {
      type: DT_FLOAT
    }
  }
  attr {
    key: "value"
    value {
      tensor {
        dtype: DT_FLOAT
        tensor_shape {
          dim {
            size: 1
          }
          dim {
            size: 1
          }
          dim {
            size: 128
          }
          dim {
            size: 24
          }
        }
      }
    }
  }
}
node {
  name: "BoxPredictor_5/BoxEncodingPredictor/weights/read"
  op: "Identity"
  input: "BoxPredictor_5/BoxEncodingPredictor/weights"
  attr {
    key: "T"
    value {
      type: DT_FLOAT
    }
  }
  attr {
    key: "_class"
    value {
      list {
        s: "loc:@BoxPredictor_5/BoxEncodingPredictor/weights"
      }
    }
  }
}
node {
  name: "BoxPredictor_5/BoxEncodingPredictor_depthwise/BatchNorm/moving_variance"
  op: "Const"
  attr {
    key: "dtype"
    value {
      type: DT_FLOAT
    }
  }
  attr {
    key: "value"
    value {
      tensor {
        dtype: DT_FLOAT
        tensor_shape {
          dim {
            size: 128
          }
        }
      }
    }
  }
}
node {
  name: "BoxPredictor_5/BoxEncodingPredictor_depthwise/BatchNorm/moving_variance/read"
  op: "Identity"
  input: "BoxPredictor_5/BoxEncodingPredictor_depthwise/BatchNorm/moving_variance"
  attr {
    key: "T"
    value {
      type: DT_FLOAT
    }
  }
  attr {
    key: "_class"
    value {
      list {
        s: "loc:@BoxPredictor_5/BoxEncodingPredictor_depthwise/BatchNorm/moving_variance"
      }
    }
  }
}
node {
  name: "BoxPredictor_5/BoxEncodingPredictor_depthwise/BatchNorm/moving_mean"
  op: "Const"
  attr {
    key: "dtype"
    value {
      type: DT_FLOAT
    }
  }
  attr {
    key: "value"
    value {
      tensor {
        dtype: DT_FLOAT
        tensor_shape {
          dim {
            size: 128
          }
        }
      }
    }
  }
}
node {
  name: "BoxPredictor_5/BoxEncodingPredictor_depthwise/BatchNorm/moving_mean/read"
  op: "Identity"
  input: "BoxPredictor_5/BoxEncodingPredictor_depthwise/BatchNorm/moving_mean"
  attr {
    key: "T"
    value {
      type: DT_FLOAT
    }
  }
  attr {
    key: "_class"
    value {
      list {
        s: "loc:@BoxPredictor_5/BoxEncodingPredictor_depthwise/BatchNorm/moving_mean"
      }
    }
  }
}
node {
  name: "BoxPredictor_5/BoxEncodingPredictor_depthwise/BatchNorm/gamma"
  op: "Const"
  attr {
    key: "dtype"
    value {
      type: DT_FLOAT
    }
  }
  attr {
    key: "value"
    value {
      tensor {
        dtype: DT_FLOAT
        tensor_shape {
          dim {
            size: 128
          }
        }
      }
    }
  }
}
node {
  name: "BoxPredictor_5/BoxEncodingPredictor_depthwise/BatchNorm/gamma/read"
  op: "Identity"
  input: "BoxPredictor_5/BoxEncodingPredictor_depthwise/BatchNorm/gamma"
  attr {
    key: "T"
    value {
      type: DT_FLOAT
    }
  }
  attr {
    key: "_class"
    value {
      list {
        s: "loc:@BoxPredictor_5/BoxEncodingPredictor_depthwise/BatchNorm/gamma"
      }
    }
  }
}
node {
  name: "BoxPredictor_5/BoxEncodingPredictor_depthwise/BatchNorm/beta"
  op: "Const"
  attr {
    key: "dtype"
    value {
      type: DT_FLOAT
    }
  }
  attr {
    key: "value"
    value {
      tensor {
        dtype: DT_FLOAT
        tensor_shape {
          dim {
            size: 128
          }
        }
      }
    }
  }
}
node {
  name: "BoxPredictor_5/BoxEncodingPredictor_depthwise/BatchNorm/beta/read"
  op: "Identity"
  input: "BoxPredictor_5/BoxEncodingPredictor_depthwise/BatchNorm/beta"
  attr {
    key: "T"
    value {
      type: DT_FLOAT
    }
  }
  attr {
    key: "_class"
    value {
      list {
        s: "loc:@BoxPredictor_5/BoxEncodingPredictor_depthwise/BatchNorm/beta"
      }
    }
  }
}
node {
  name: "BoxPredictor_5/BoxEncodingPredictor_depthwise/depthwise_weights"
  op: "Const"
  attr {
    key: "dtype"
    value {
      type: DT_FLOAT
    }
  }
  attr {
    key: "value"
    value {
      tensor {
        dtype: DT_FLOAT
        tensor_shape {
          dim {
            size: 3
          }
          dim {
            size: 3
          }
          dim {
            size: 128
          }
          dim {
            size: 1
          }
        }
      }
    }
  }
}
node {
  name: "BoxPredictor_5/BoxEncodingPredictor_depthwise/depthwise_weights/read"
  op: "Identity"
  input: "BoxPredictor_5/BoxEncodingPredictor_depthwise/depthwise_weights"
  attr {
    key: "T"
    value {
      type: DT_FLOAT
    }
  }
  attr {
    key: "_class"
    value {
      list {
        s: "loc:@BoxPredictor_5/BoxEncodingPredictor_depthwise/depthwise_weights"
      }
    }
  }
}
node {
  name: "BoxPredictor_4/Reshape_1/shape"
  op: "Const"
  attr {
    key: "dtype"
    value {
      type: DT_INT32
    }
  }
  attr {
    key: "value"
    value {
      tensor {
        dtype: DT_INT32
        tensor_shape {
          dim {
            size: 3
          }
        }
      }
    }
  }
}
node {
  name: "BoxPredictor_4/ClassPredictor/biases"
  op: "Const"
  attr {
    key: "dtype"
    value {
      type: DT_FLOAT
    }
  }
  attr {
    key: "value"
    value {
      tensor {
        dtype: DT_FLOAT
        tensor_shape {
          dim {
            size: 546
          }
        }
      }
    }
  }
}
node {
  name: "BoxPredictor_4/ClassPredictor/biases/read"
  op: "Identity"
  input: "BoxPredictor_4/ClassPredictor/biases"
  attr {
    key: "T"
    value {
      type: DT_FLOAT
    }
  }
  attr {
    key: "_class"
    value {
      list {
        s: "loc:@BoxPredictor_4/ClassPredictor/biases"
      }
    }
  }
}
node {
  name: "BoxPredictor_4/ClassPredictor/weights"
  op: "Const"
  attr {
    key: "dtype"
    value {
      type: DT_FLOAT
    }
  }
  attr {
    key: "value"
    value {
      tensor {
        dtype: DT_FLOAT
        tensor_shape {
          dim {
            size: 1
          }
          dim {
            size: 1
          }
          dim {
            size: 256
          }
          dim {
            size: 546
          }
        }
      }
    }
  }
}
node {
  name: "BoxPredictor_4/ClassPredictor/weights/read"
  op: "Identity"
  input: "BoxPredictor_4/ClassPredictor/weights"
  attr {
    key: "T"
    value {
      type: DT_FLOAT
    }
  }
  attr {
    key: "_class"
    value {
      list {
        s: "loc:@BoxPredictor_4/ClassPredictor/weights"
      }
    }
  }
}
node {
  name: "BoxPredictor_4/ClassPredictor_depthwise/BatchNorm/moving_variance"
  op: "Const"
  attr {
    key: "dtype"
    value {
      type: DT_FLOAT
    }
  }
  attr {
    key: "value"
    value {
      tensor {
        dtype: DT_FLOAT
        tensor_shape {
          dim {
            size: 256
          }
        }
      }
    }
  }
}
node {
  name: "BoxPredictor_4/ClassPredictor_depthwise/BatchNorm/moving_variance/read"
  op: "Identity"
  input: "BoxPredictor_4/ClassPredictor_depthwise/BatchNorm/moving_variance"
  attr {
    key: "T"
    value {
      type: DT_FLOAT
    }
  }
  attr {
    key: "_class"
    value {
      list {
        s: "loc:@BoxPredictor_4/ClassPredictor_depthwise/BatchNorm/moving_variance"
      }
    }
  }
}
node {
  name: "BoxPredictor_4/ClassPredictor_depthwise/BatchNorm/moving_mean"
  op: "Const"
  attr {
    key: "dtype"
    value {
      type: DT_FLOAT
    }
  }
  attr {
    key: "value"
    value {
      tensor {
        dtype: DT_FLOAT
        tensor_shape {
          dim {
            size: 256
          }
        }
      }
    }
  }
}
node {
  name: "BoxPredictor_4/ClassPredictor_depthwise/BatchNorm/moving_mean/read"
  op: "Identity"
  input: "BoxPredictor_4/ClassPredictor_depthwise/BatchNorm/moving_mean"
  attr {
    key: "T"
    value {
      type: DT_FLOAT
    }
  }
  attr {
    key: "_class"
    value {
      list {
        s: "loc:@BoxPredictor_4/ClassPredictor_depthwise/BatchNorm/moving_mean"
      }
    }
  }
}
node {
  name: "BoxPredictor_4/ClassPredictor_depthwise/BatchNorm/gamma"
  op: "Const"
  attr {
    key: "dtype"
    value {
      type: DT_FLOAT
    }
  }
  attr {
    key: "value"
    value {
      tensor {
        dtype: DT_FLOAT
        tensor_shape {
          dim {
            size: 256
          }
        }
      }
    }
  }
}
node {
  name: "BoxPredictor_4/ClassPredictor_depthwise/BatchNorm/gamma/read"
  op: "Identity"
  input: "BoxPredictor_4/ClassPredictor_depthwise/BatchNorm/gamma"
  attr {
    key: "T"
    value {
      type: DT_FLOAT
    }
  }
  attr {
    key: "_class"
    value {
      list {
        s: "loc:@BoxPredictor_4/ClassPredictor_depthwise/BatchNorm/gamma"
      }
    }
  }
}
node {
  name: "BoxPredictor_4/ClassPredictor_depthwise/BatchNorm/beta"
  op: "Const"
  attr {
    key: "dtype"
    value {
      type: DT_FLOAT
    }
  }
  attr {
    key: "value"
    value {
      tensor {
        dtype: DT_FLOAT
        tensor_shape {
          dim {
            size: 256
          }
        }
      }
    }
  }
}
node {
  name: "BoxPredictor_4/ClassPredictor_depthwise/BatchNorm/beta/read"
  op: "Identity"
  input: "BoxPredictor_4/ClassPredictor_depthwise/BatchNorm/beta"
  attr {
    key: "T"
    value {
      type: DT_FLOAT
    }
  }
  attr {
    key: "_class"
    value {
      list {
        s: "loc:@BoxPredictor_4/ClassPredictor_depthwise/BatchNorm/beta"
      }
    }
  }
}
node {
  name: "BoxPredictor_4/ClassPredictor_depthwise/depthwise_weights"
  op: "Const"
  attr {
    key: "dtype"
    value {
      type: DT_FLOAT
    }
  }
  attr {
    key: "value"
    value {
      tensor {
        dtype: DT_FLOAT
        tensor_shape {
          dim {
            size: 3
          }
          dim {
            size: 3
          }
          dim {
            size: 256
          }
          dim {
            size: 1
          }
        }
      }
    }
  }
}
node {
  name: "BoxPredictor_4/ClassPredictor_depthwise/depthwise_weights/read"
  op: "Identity"
  input: "BoxPredictor_4/ClassPredictor_depthwise/depthwise_weights"
  attr {
    key: "T"
    value {
      type: DT_FLOAT
    }
  }
  attr {
    key: "_class"
    value {
      list {
        s: "loc:@BoxPredictor_4/ClassPredictor_depthwise/depthwise_weights"
      }
    }
  }
}
node {
  name: "BoxPredictor_4/Reshape/shape"
  op: "Const"
  attr {
    key: "dtype"
    value {
      type: DT_INT32
    }
  }
  attr {
    key: "value"
    value {
      tensor {
        dtype: DT_INT32
        tensor_shape {
          dim {
            size: 4
          }
        }
      }
    }
  }
}
node {
  name: "BoxPredictor_4/BoxEncodingPredictor/biases"
  op: "Const"
  attr {
    key: "dtype"
    value {
      type: DT_FLOAT
    }
  }
  attr {
    key: "value"
    value {
      tensor {
        dtype: DT_FLOAT
        tensor_shape {
          dim {
            size: 24
          }
        }
      }
    }
  }
}
node {
  name: "BoxPredictor_4/BoxEncodingPredictor/biases/read"
  op: "Identity"
  input: "BoxPredictor_4/BoxEncodingPredictor/biases"
  attr {
    key: "T"
    value {
      type: DT_FLOAT
    }
  }
  attr {
    key: "_class"
    value {
      list {
        s: "loc:@BoxPredictor_4/BoxEncodingPredictor/biases"
      }
    }
  }
}
node {
  name: "BoxPredictor_4/BoxEncodingPredictor/weights"
  op: "Const"
  attr {
    key: "dtype"
    value {
      type: DT_FLOAT
    }
  }
  attr {
    key: "value"
    value {
      tensor {
        dtype: DT_FLOAT
        tensor_shape {
          dim {
            size: 1
          }
          dim {
            size: 1
          }
          dim {
            size: 256
          }
          dim {
            size: 24
          }
        }
      }
    }
  }
}
node {
  name: "BoxPredictor_4/BoxEncodingPredictor/weights/read"
  op: "Identity"
  input: "BoxPredictor_4/BoxEncodingPredictor/weights"
  attr {
    key: "T"
    value {
      type: DT_FLOAT
    }
  }
  attr {
    key: "_class"
    value {
      list {
        s: "loc:@BoxPredictor_4/BoxEncodingPredictor/weights"
      }
    }
  }
}
node {
  name: "BoxPredictor_4/BoxEncodingPredictor_depthwise/BatchNorm/moving_variance"
  op: "Const"
  attr {
    key: "dtype"
    value {
      type: DT_FLOAT
    }
  }
  attr {
    key: "value"
    value {
      tensor {
        dtype: DT_FLOAT
        tensor_shape {
          dim {
            size: 256
          }
        }
      }
    }
  }
}
node {
  name: "BoxPredictor_4/BoxEncodingPredictor_depthwise/BatchNorm/moving_variance/read"
  op: "Identity"
  input: "BoxPredictor_4/BoxEncodingPredictor_depthwise/BatchNorm/moving_variance"
  attr {
    key: "T"
    value {
      type: DT_FLOAT
    }
  }
  attr {
    key: "_class"
    value {
      list {
        s: "loc:@BoxPredictor_4/BoxEncodingPredictor_depthwise/BatchNorm/moving_variance"
      }
    }
  }
}
node {
  name: "BoxPredictor_4/BoxEncodingPredictor_depthwise/BatchNorm/moving_mean"
  op: "Const"
  attr {
    key: "dtype"
    value {
      type: DT_FLOAT
    }
  }
  attr {
    key: "value"
    value {
      tensor {
        dtype: DT_FLOAT
        tensor_shape {
          dim {
            size: 256
          }
        }
      }
    }
  }
}
node {
  name: "BoxPredictor_4/BoxEncodingPredictor_depthwise/BatchNorm/moving_mean/read"
  op: "Identity"
  input: "BoxPredictor_4/BoxEncodingPredictor_depthwise/BatchNorm/moving_mean"
  attr {
    key: "T"
    value {
      type: DT_FLOAT
    }
  }
  attr {
    key: "_class"
    value {
      list {
        s: "loc:@BoxPredictor_4/BoxEncodingPredictor_depthwise/BatchNorm/moving_mean"
      }
    }
  }
}
node {
  name: "BoxPredictor_4/BoxEncodingPredictor_depthwise/BatchNorm/gamma"
  op: "Const"
  attr {
    key: "dtype"
    value {
      type: DT_FLOAT
    }
  }
  attr {
    key: "value"
    value {
      tensor {
        dtype: DT_FLOAT
        tensor_shape {
          dim {
            size: 256
          }
        }
      }
    }
  }
}
node {
  name: "BoxPredictor_4/BoxEncodingPredictor_depthwise/BatchNorm/gamma/read"
  op: "Identity"
  input: "BoxPredictor_4/BoxEncodingPredictor_depthwise/BatchNorm/gamma"
  attr {
    key: "T"
    value {
      type: DT_FLOAT
    }
  }
  attr {
    key: "_class"
    value {
      list {
        s: "loc:@BoxPredictor_4/BoxEncodingPredictor_depthwise/BatchNorm/gamma"
      }
    }
  }
}
node {
  name: "BoxPredictor_4/BoxEncodingPredictor_depthwise/BatchNorm/beta"
  op: "Const"
  attr {
    key: "dtype"
    value {
      type: DT_FLOAT
    }
  }
  attr {
    key: "value"
    value {
      tensor {
        dtype: DT_FLOAT
        tensor_shape {
          dim {
            size: 256
          }
        }
      }
    }
  }
}
node {
  name: "BoxPredictor_4/BoxEncodingPredictor_depthwise/BatchNorm/beta/read"
  op: "Identity"
  input: "BoxPredictor_4/BoxEncodingPredictor_depthwise/BatchNorm/beta"
  attr {
    key: "T"
    value {
      type: DT_FLOAT
    }
  }
  attr {
    key: "_class"
    value {
      list {
        s: "loc:@BoxPredictor_4/BoxEncodingPredictor_depthwise/BatchNorm/beta"
      }
    }
  }
}
node {
  name: "BoxPredictor_4/BoxEncodingPredictor_depthwise/depthwise_weights"
  op: "Const"
  attr {
    key: "dtype"
    value {
      type: DT_FLOAT
    }
  }
  attr {
    key: "value"
    value {
      tensor {
        dtype: DT_FLOAT
        tensor_shape {
          dim {
            size: 3
          }
          dim {
            size: 3
          }
          dim {
            size: 256
          }
          dim {
            size: 1
          }
        }
      }
    }
  }
}
node {
  name: "BoxPredictor_4/BoxEncodingPredictor_depthwise/depthwise_weights/read"
  op: "Identity"
  input: "BoxPredictor_4/BoxEncodingPredictor_depthwise/depthwise_weights"
  attr {
    key: "T"
    value {
      type: DT_FLOAT
    }
  }
  attr {
    key: "_class"
    value {
      list {
        s: "loc:@BoxPredictor_4/BoxEncodingPredictor_depthwise/depthwise_weights"
      }
    }
  }
}
node {
  name: "BoxPredictor_3/Reshape_1/shape"
  op: "Const"
  attr {
    key: "dtype"
    value {
      type: DT_INT32
    }
  }
  attr {
    key: "value"
    value {
      tensor {
        dtype: DT_INT32
        tensor_shape {
          dim {
            size: 3
          }
        }
      }
    }
  }
}
node {
  name: "BoxPredictor_3/ClassPredictor/biases"
  op: "Const"
  attr {
    key: "dtype"
    value {
      type: DT_FLOAT
    }
  }
  attr {
    key: "value"
    value {
      tensor {
        dtype: DT_FLOAT
        tensor_shape {
          dim {
            size: 546
          }
        }
      }
    }
  }
}
node {
  name: "BoxPredictor_3/ClassPredictor/biases/read"
  op: "Identity"
  input: "BoxPredictor_3/ClassPredictor/biases"
  attr {
    key: "T"
    value {
      type: DT_FLOAT
    }
  }
  attr {
    key: "_class"
    value {
      list {
        s: "loc:@BoxPredictor_3/ClassPredictor/biases"
      }
    }
  }
}
node {
  name: "BoxPredictor_3/ClassPredictor/weights"
  op: "Const"
  attr {
    key: "dtype"
    value {
      type: DT_FLOAT
    }
  }
  attr {
    key: "value"
    value {
      tensor {
        dtype: DT_FLOAT
        tensor_shape {
          dim {
            size: 1
          }
          dim {
            size: 1
          }
          dim {
            size: 256
          }
          dim {
            size: 546
          }
        }
      }
    }
  }
}
node {
  name: "BoxPredictor_3/ClassPredictor/weights/read"
  op: "Identity"
  input: "BoxPredictor_3/ClassPredictor/weights"
  attr {
    key: "T"
    value {
      type: DT_FLOAT
    }
  }
  attr {
    key: "_class"
    value {
      list {
        s: "loc:@BoxPredictor_3/ClassPredictor/weights"
      }
    }
  }
}
node {
  name: "BoxPredictor_3/ClassPredictor_depthwise/BatchNorm/moving_variance"
  op: "Const"
  attr {
    key: "dtype"
    value {
      type: DT_FLOAT
    }
  }
  attr {
    key: "value"
    value {
      tensor {
        dtype: DT_FLOAT
        tensor_shape {
          dim {
            size: 256
          }
        }
      }
    }
  }
}
node {
  name: "BoxPredictor_3/ClassPredictor_depthwise/BatchNorm/moving_variance/read"
  op: "Identity"
  input: "BoxPredictor_3/ClassPredictor_depthwise/BatchNorm/moving_variance"
  attr {
    key: "T"
    value {
      type: DT_FLOAT
    }
  }
  attr {
    key: "_class"
    value {
      list {
        s: "loc:@BoxPredictor_3/ClassPredictor_depthwise/BatchNorm/moving_variance"
      }
    }
  }
}
node {
  name: "BoxPredictor_3/ClassPredictor_depthwise/BatchNorm/moving_mean"
  op: "Const"
  attr {
    key: "dtype"
    value {
      type: DT_FLOAT
    }
  }
  attr {
    key: "value"
    value {
      tensor {
        dtype: DT_FLOAT
        tensor_shape {
          dim {
            size: 256
          }
        }
      }
    }
  }
}
node {
  name: "BoxPredictor_3/ClassPredictor_depthwise/BatchNorm/moving_mean/read"
  op: "Identity"
  input: "BoxPredictor_3/ClassPredictor_depthwise/BatchNorm/moving_mean"
  attr {
    key: "T"
    value {
      type: DT_FLOAT
    }
  }
  attr {
    key: "_class"
    value {
      list {
        s: "loc:@BoxPredictor_3/ClassPredictor_depthwise/BatchNorm/moving_mean"
      }
    }
  }
}
node {
  name: "BoxPredictor_3/ClassPredictor_depthwise/BatchNorm/gamma"
  op: "Const"
  attr {
    key: "dtype"
    value {
      type: DT_FLOAT
    }
  }
  attr {
    key: "value"
    value {
      tensor {
        dtype: DT_FLOAT
        tensor_shape {
          dim {
            size: 256
          }
        }
      }
    }
  }
}
node {
  name: "BoxPredictor_3/ClassPredictor_depthwise/BatchNorm/gamma/read"
  op: "Identity"
  input: "BoxPredictor_3/ClassPredictor_depthwise/BatchNorm/gamma"
  attr {
    key: "T"
    value {
      type: DT_FLOAT
    }
  }
  attr {
    key: "_class"
    value {
      list {
        s: "loc:@BoxPredictor_3/ClassPredictor_depthwise/BatchNorm/gamma"
      }
    }
  }
}
node {
  name: "BoxPredictor_3/ClassPredictor_depthwise/BatchNorm/beta"
  op: "Const"
  attr {
    key: "dtype"
    value {
      type: DT_FLOAT
    }
  }
  attr {
    key: "value"
    value {
      tensor {
        dtype: DT_FLOAT
        tensor_shape {
          dim {
            size: 256
          }
        }
      }
    }
  }
}
node {
  name: "BoxPredictor_3/ClassPredictor_depthwise/BatchNorm/beta/read"
  op: "Identity"
  input: "BoxPredictor_3/ClassPredictor_depthwise/BatchNorm/beta"
  attr {
    key: "T"
    value {
      type: DT_FLOAT
    }
  }
  attr {
    key: "_class"
    value {
      list {
        s: "loc:@BoxPredictor_3/ClassPredictor_depthwise/BatchNorm/beta"
      }
    }
  }
}
node {
  name: "BoxPredictor_3/ClassPredictor_depthwise/depthwise_weights"
  op: "Const"
  attr {
    key: "dtype"
    value {
      type: DT_FLOAT
    }
  }
  attr {
    key: "value"
    value {
      tensor {
        dtype: DT_FLOAT
        tensor_shape {
          dim {
            size: 3
          }
          dim {
            size: 3
          }
          dim {
            size: 256
          }
          dim {
            size: 1
          }
        }
      }
    }
  }
}
node {
  name: "BoxPredictor_3/ClassPredictor_depthwise/depthwise_weights/read"
  op: "Identity"
  input: "BoxPredictor_3/ClassPredictor_depthwise/depthwise_weights"
  attr {
    key: "T"
    value {
      type: DT_FLOAT
    }
  }
  attr {
    key: "_class"
    value {
      list {
        s: "loc:@BoxPredictor_3/ClassPredictor_depthwise/depthwise_weights"
      }
    }
  }
}
node {
  name: "BoxPredictor_3/Reshape/shape"
  op: "Const"
  attr {
    key: "dtype"
    value {
      type: DT_INT32
    }
  }
  attr {
    key: "value"
    value {
      tensor {
        dtype: DT_INT32
        tensor_shape {
          dim {
            size: 4
          }
        }
      }
    }
  }
}
node {
  name: "BoxPredictor_3/BoxEncodingPredictor/biases"
  op: "Const"
  attr {
    key: "dtype"
    value {
      type: DT_FLOAT
    }
  }
  attr {
    key: "value"
    value {
      tensor {
        dtype: DT_FLOAT
        tensor_shape {
          dim {
            size: 24
          }
        }
      }
    }
  }
}
node {
  name: "BoxPredictor_3/BoxEncodingPredictor/biases/read"
  op: "Identity"
  input: "BoxPredictor_3/BoxEncodingPredictor/biases"
  attr {
    key: "T"
    value {
      type: DT_FLOAT
    }
  }
  attr {
    key: "_class"
    value {
      list {
        s: "loc:@BoxPredictor_3/BoxEncodingPredictor/biases"
      }
    }
  }
}
node {
  name: "BoxPredictor_3/BoxEncodingPredictor/weights"
  op: "Const"
  attr {
    key: "dtype"
    value {
      type: DT_FLOAT
    }
  }
  attr {
    key: "value"
    value {
      tensor {
        dtype: DT_FLOAT
        tensor_shape {
          dim {
            size: 1
          }
          dim {
            size: 1
          }
          dim {
            size: 256
          }
          dim {
            size: 24
          }
        }
      }
    }
  }
}
node {
  name: "BoxPredictor_3/BoxEncodingPredictor/weights/read"
  op: "Identity"
  input: "BoxPredictor_3/BoxEncodingPredictor/weights"
  attr {
    key: "T"
    value {
      type: DT_FLOAT
    }
  }
  attr {
    key: "_class"
    value {
      list {
        s: "loc:@BoxPredictor_3/BoxEncodingPredictor/weights"
      }
    }
  }
}
node {
  name: "BoxPredictor_3/BoxEncodingPredictor_depthwise/BatchNorm/moving_variance"
  op: "Const"
  attr {
    key: "dtype"
    value {
      type: DT_FLOAT
    }
  }
  attr {
    key: "value"
    value {
      tensor {
        dtype: DT_FLOAT
        tensor_shape {
          dim {
            size: 256
          }
        }
      }
    }
  }
}
node {
  name: "BoxPredictor_3/BoxEncodingPredictor_depthwise/BatchNorm/moving_variance/read"
  op: "Identity"
  input: "BoxPredictor_3/BoxEncodingPredictor_depthwise/BatchNorm/moving_variance"
  attr {
    key: "T"
    value {
      type: DT_FLOAT
    }
  }
  attr {
    key: "_class"
    value {
      list {
        s: "loc:@BoxPredictor_3/BoxEncodingPredictor_depthwise/BatchNorm/moving_variance"
      }
    }
  }
}
node {
  name: "BoxPredictor_3/BoxEncodingPredictor_depthwise/BatchNorm/moving_mean"
  op: "Const"
  attr {
    key: "dtype"
    value {
      type: DT_FLOAT
    }
  }
  attr {
    key: "value"
    value {
      tensor {
        dtype: DT_FLOAT
        tensor_shape {
          dim {
            size: 256
          }
        }
      }
    }
  }
}
node {
  name: "BoxPredictor_3/BoxEncodingPredictor_depthwise/BatchNorm/moving_mean/read"
  op: "Identity"
  input: "BoxPredictor_3/BoxEncodingPredictor_depthwise/BatchNorm/moving_mean"
  attr {
    key: "T"
    value {
      type: DT_FLOAT
    }
  }
  attr {
    key: "_class"
    value {
      list {
        s: "loc:@BoxPredictor_3/BoxEncodingPredictor_depthwise/BatchNorm/moving_mean"
      }
    }
  }
}
node {
  name: "BoxPredictor_3/BoxEncodingPredictor_depthwise/BatchNorm/gamma"
  op: "Const"
  attr {
    key: "dtype"
    value {
      type: DT_FLOAT
    }
  }
  attr {
    key: "value"
    value {
      tensor {
        dtype: DT_FLOAT
        tensor_shape {
          dim {
            size: 256
          }
        }
      }
    }
  }
}
node {
  name: "BoxPredictor_3/BoxEncodingPredictor_depthwise/BatchNorm/gamma/read"
  op: "Identity"
  input: "BoxPredictor_3/BoxEncodingPredictor_depthwise/BatchNorm/gamma"
  attr {
    key: "T"
    value {
      type: DT_FLOAT
    }
  }
  attr {
    key: "_class"
    value {
      list {
        s: "loc:@BoxPredictor_3/BoxEncodingPredictor_depthwise/BatchNorm/gamma"
      }
    }
  }
}
node {
  name: "BoxPredictor_3/BoxEncodingPredictor_depthwise/BatchNorm/beta"
  op: "Const"
  attr {
    key: "dtype"
    value {
      type: DT_FLOAT
    }
  }
  attr {
    key: "value"
    value {
      tensor {
        dtype: DT_FLOAT
        tensor_shape {
          dim {
            size: 256
          }
        }
      }
    }
  }
}
node {
  name: "BoxPredictor_3/BoxEncodingPredictor_depthwise/BatchNorm/beta/read"
  op: "Identity"
  input: "BoxPredictor_3/BoxEncodingPredictor_depthwise/BatchNorm/beta"
  attr {
    key: "T"
    value {
      type: DT_FLOAT
    }
  }
  attr {
    key: "_class"
    value {
      list {
        s: "loc:@BoxPredictor_3/BoxEncodingPredictor_depthwise/BatchNorm/beta"
      }
    }
  }
}
node {
  name: "BoxPredictor_3/BoxEncodingPredictor_depthwise/depthwise_weights"
  op: "Const"
  attr {
    key: "dtype"
    value {
      type: DT_FLOAT
    }
  }
  attr {
    key: "value"
    value {
      tensor {
        dtype: DT_FLOAT
        tensor_shape {
          dim {
            size: 3
          }
          dim {
            size: 3
          }
          dim {
            size: 256
          }
          dim {
            size: 1
          }
        }
      }
    }
  }
}
node {
  name: "BoxPredictor_3/BoxEncodingPredictor_depthwise/depthwise_weights/read"
  op: "Identity"
  input: "BoxPredictor_3/BoxEncodingPredictor_depthwise/depthwise_weights"
  attr {
    key: "T"
    value {
      type: DT_FLOAT
    }
  }
  attr {
    key: "_class"
    value {
      list {
        s: "loc:@BoxPredictor_3/BoxEncodingPredictor_depthwise/depthwise_weights"
      }
    }
  }
}
node {
  name: "BoxPredictor_2/Reshape_1/shape"
  op: "Const"
  attr {
    key: "dtype"
    value {
      type: DT_INT32
    }
  }
  attr {
    key: "value"
    value {
      tensor {
        dtype: DT_INT32
        tensor_shape {
          dim {
            size: 3
          }
        }
      }
    }
  }
}
node {
  name: "BoxPredictor_2/ClassPredictor/biases"
  op: "Const"
  attr {
    key: "dtype"
    value {
      type: DT_FLOAT
    }
  }
  attr {
    key: "value"
    value {
      tensor {
        dtype: DT_FLOAT
        tensor_shape {
          dim {
            size: 546
          }
        }
      }
    }
  }
}
node {
  name: "BoxPredictor_2/ClassPredictor/biases/read"
  op: "Identity"
  input: "BoxPredictor_2/ClassPredictor/biases"
  attr {
    key: "T"
    value {
      type: DT_FLOAT
    }
  }
  attr {
    key: "_class"
    value {
      list {
        s: "loc:@BoxPredictor_2/ClassPredictor/biases"
      }
    }
  }
}
node {
  name: "BoxPredictor_2/ClassPredictor/weights"
  op: "Const"
  attr {
    key: "dtype"
    value {
      type: DT_FLOAT
    }
  }
  attr {
    key: "value"
    value {
      tensor {
        dtype: DT_FLOAT
        tensor_shape {
          dim {
            size: 1
          }
          dim {
            size: 1
          }
          dim {
            size: 512
          }
          dim {
            size: 546
          }
        }
      }
    }
  }
}
node {
  name: "BoxPredictor_2/ClassPredictor/weights/read"
  op: "Identity"
  input: "BoxPredictor_2/ClassPredictor/weights"
  attr {
    key: "T"
    value {
      type: DT_FLOAT
    }
  }
  attr {
    key: "_class"
    value {
      list {
        s: "loc:@BoxPredictor_2/ClassPredictor/weights"
      }
    }
  }
}
node {
  name: "BoxPredictor_2/ClassPredictor_depthwise/BatchNorm/moving_variance"
  op: "Const"
  attr {
    key: "dtype"
    value {
      type: DT_FLOAT
    }
  }
  attr {
    key: "value"
    value {
      tensor {
        dtype: DT_FLOAT
        tensor_shape {
          dim {
            size: 512
          }
        }
      }
    }
  }
}
node {
  name: "BoxPredictor_2/ClassPredictor_depthwise/BatchNorm/moving_variance/read"
  op: "Identity"
  input: "BoxPredictor_2/ClassPredictor_depthwise/BatchNorm/moving_variance"
  attr {
    key: "T"
    value {
      type: DT_FLOAT
    }
  }
  attr {
    key: "_class"
    value {
      list {
        s: "loc:@BoxPredictor_2/ClassPredictor_depthwise/BatchNorm/moving_variance"
      }
    }
  }
}
node {
  name: "BoxPredictor_2/ClassPredictor_depthwise/BatchNorm/moving_mean"
  op: "Const"
  attr {
    key: "dtype"
    value {
      type: DT_FLOAT
    }
  }
  attr {
    key: "value"
    value {
      tensor {
        dtype: DT_FLOAT
        tensor_shape {
          dim {
            size: 512
          }
        }
      }
    }
  }
}
node {
  name: "BoxPredictor_2/ClassPredictor_depthwise/BatchNorm/moving_mean/read"
  op: "Identity"
  input: "BoxPredictor_2/ClassPredictor_depthwise/BatchNorm/moving_mean"
  attr {
    key: "T"
    value {
      type: DT_FLOAT
    }
  }
  attr {
    key: "_class"
    value {
      list {
        s: "loc:@BoxPredictor_2/ClassPredictor_depthwise/BatchNorm/moving_mean"
      }
    }
  }
}
node {
  name: "BoxPredictor_2/ClassPredictor_depthwise/BatchNorm/gamma"
  op: "Const"
  attr {
    key: "dtype"
    value {
      type: DT_FLOAT
    }
  }
  attr {
    key: "value"
    value {
      tensor {
        dtype: DT_FLOAT
        tensor_shape {
          dim {
            size: 512
          }
        }
      }
    }
  }
}
node {
  name: "BoxPredictor_2/ClassPredictor_depthwise/BatchNorm/gamma/read"
  op: "Identity"
  input: "BoxPredictor_2/ClassPredictor_depthwise/BatchNorm/gamma"
  attr {
    key: "T"
    value {
      type: DT_FLOAT
    }
  }
  attr {
    key: "_class"
    value {
      list {
        s: "loc:@BoxPredictor_2/ClassPredictor_depthwise/BatchNorm/gamma"
      }
    }
  }
}
node {
  name: "BoxPredictor_2/ClassPredictor_depthwise/BatchNorm/beta"
  op: "Const"
  attr {
    key: "dtype"
    value {
      type: DT_FLOAT
    }
  }
  attr {
    key: "value"
    value {
      tensor {
        dtype: DT_FLOAT
        tensor_shape {
          dim {
            size: 512
          }
        }
      }
    }
  }
}
node {
  name: "BoxPredictor_2/ClassPredictor_depthwise/BatchNorm/beta/read"
  op: "Identity"
  input: "BoxPredictor_2/ClassPredictor_depthwise/BatchNorm/beta"
  attr {
    key: "T"
    value {
      type: DT_FLOAT
    }
  }
  attr {
    key: "_class"
    value {
      list {
        s: "loc:@BoxPredictor_2/ClassPredictor_depthwise/BatchNorm/beta"
      }
    }
  }
}
node {
  name: "BoxPredictor_2/ClassPredictor_depthwise/depthwise_weights"
  op: "Const"
  attr {
    key: "dtype"
    value {
      type: DT_FLOAT
    }
  }
  attr {
    key: "value"
    value {
      tensor {
        dtype: DT_FLOAT
        tensor_shape {
          dim {
            size: 3
          }
          dim {
            size: 3
          }
          dim {
            size: 512
          }
          dim {
            size: 1
          }
        }
      }
    }
  }
}
node {
  name: "BoxPredictor_2/ClassPredictor_depthwise/depthwise_weights/read"
  op: "Identity"
  input: "BoxPredictor_2/ClassPredictor_depthwise/depthwise_weights"
  attr {
    key: "T"
    value {
      type: DT_FLOAT
    }
  }
  attr {
    key: "_class"
    value {
      list {
        s: "loc:@BoxPredictor_2/ClassPredictor_depthwise/depthwise_weights"
      }
    }
  }
}
node {
  name: "BoxPredictor_2/Reshape/shape"
  op: "Const"
  attr {
    key: "dtype"
    value {
      type: DT_INT32
    }
  }
  attr {
    key: "value"
    value {
      tensor {
        dtype: DT_INT32
        tensor_shape {
          dim {
            size: 4
          }
        }
      }
    }
  }
}
node {
  name: "BoxPredictor_2/BoxEncodingPredictor/biases"
  op: "Const"
  attr {
    key: "dtype"
    value {
      type: DT_FLOAT
    }
  }
  attr {
    key: "value"
    value {
      tensor {
        dtype: DT_FLOAT
        tensor_shape {
          dim {
            size: 24
          }
        }
      }
    }
  }
}
node {
  name: "BoxPredictor_2/BoxEncodingPredictor/biases/read"
  op: "Identity"
  input: "BoxPredictor_2/BoxEncodingPredictor/biases"
  attr {
    key: "T"
    value {
      type: DT_FLOAT
    }
  }
  attr {
    key: "_class"
    value {
      list {
        s: "loc:@BoxPredictor_2/BoxEncodingPredictor/biases"
      }
    }
  }
}
node {
  name: "BoxPredictor_2/BoxEncodingPredictor/weights"
  op: "Const"
  attr {
    key: "dtype"
    value {
      type: DT_FLOAT
    }
  }
  attr {
    key: "value"
    value {
      tensor {
        dtype: DT_FLOAT
        tensor_shape {
          dim {
            size: 1
          }
          dim {
            size: 1
          }
          dim {
            size: 512
          }
          dim {
            size: 24
          }
        }
      }
    }
  }
}
node {
  name: "BoxPredictor_2/BoxEncodingPredictor/weights/read"
  op: "Identity"
  input: "BoxPredictor_2/BoxEncodingPredictor/weights"
  attr {
    key: "T"
    value {
      type: DT_FLOAT
    }
  }
  attr {
    key: "_class"
    value {
      list {
        s: "loc:@BoxPredictor_2/BoxEncodingPredictor/weights"
      }
    }
  }
}
node {
  name: "BoxPredictor_2/BoxEncodingPredictor_depthwise/BatchNorm/moving_variance"
  op: "Const"
  attr {
    key: "dtype"
    value {
      type: DT_FLOAT
    }
  }
  attr {
    key: "value"
    value {
      tensor {
        dtype: DT_FLOAT
        tensor_shape {
          dim {
            size: 512
          }
        }
      }
    }
  }
}
node {
  name: "BoxPredictor_2/BoxEncodingPredictor_depthwise/BatchNorm/moving_variance/read"
  op: "Identity"
  input: "BoxPredictor_2/BoxEncodingPredictor_depthwise/BatchNorm/moving_variance"
  attr {
    key: "T"
    value {
      type: DT_FLOAT
    }
  }
  attr {
    key: "_class"
    value {
      list {
        s: "loc:@BoxPredictor_2/BoxEncodingPredictor_depthwise/BatchNorm/moving_variance"
      }
    }
  }
}
node {
  name: "BoxPredictor_2/BoxEncodingPredictor_depthwise/BatchNorm/moving_mean"
  op: "Const"
  attr {
    key: "dtype"
    value {
      type: DT_FLOAT
    }
  }
  attr {
    key: "value"
    value {
      tensor {
        dtype: DT_FLOAT
        tensor_shape {
          dim {
            size: 512
          }
        }
      }
    }
  }
}
node {
  name: "BoxPredictor_2/BoxEncodingPredictor_depthwise/BatchNorm/moving_mean/read"
  op: "Identity"
  input: "BoxPredictor_2/BoxEncodingPredictor_depthwise/BatchNorm/moving_mean"
  attr {
    key: "T"
    value {
      type: DT_FLOAT
    }
  }
  attr {
    key: "_class"
    value {
      list {
        s: "loc:@BoxPredictor_2/BoxEncodingPredictor_depthwise/BatchNorm/moving_mean"
      }
    }
  }
}
node {
  name: "BoxPredictor_2/BoxEncodingPredictor_depthwise/BatchNorm/gamma"
  op: "Const"
  attr {
    key: "dtype"
    value {
      type: DT_FLOAT
    }
  }
  attr {
    key: "value"
    value {
      tensor {
        dtype: DT_FLOAT
        tensor_shape {
          dim {
            size: 512
          }
        }
      }
    }
  }
}
node {
  name: "BoxPredictor_2/BoxEncodingPredictor_depthwise/BatchNorm/gamma/read"
  op: "Identity"
  input: "BoxPredictor_2/BoxEncodingPredictor_depthwise/BatchNorm/gamma"
  attr {
    key: "T"
    value {
      type: DT_FLOAT
    }
  }
  attr {
    key: "_class"
    value {
      list {
        s: "loc:@BoxPredictor_2/BoxEncodingPredictor_depthwise/BatchNorm/gamma"
      }
    }
  }
}
node {
  name: "BoxPredictor_2/BoxEncodingPredictor_depthwise/BatchNorm/beta"
  op: "Const"
  attr {
    key: "dtype"
    value {
      type: DT_FLOAT
    }
  }
  attr {
    key: "value"
    value {
      tensor {
        dtype: DT_FLOAT
        tensor_shape {
          dim {
            size: 512
          }
        }
      }
    }
  }
}
node {
  name: "BoxPredictor_2/BoxEncodingPredictor_depthwise/BatchNorm/beta/read"
  op: "Identity"
  input: "BoxPredictor_2/BoxEncodingPredictor_depthwise/BatchNorm/beta"
  attr {
    key: "T"
    value {
      type: DT_FLOAT
    }
  }
  attr {
    key: "_class"
    value {
      list {
        s: "loc:@BoxPredictor_2/BoxEncodingPredictor_depthwise/BatchNorm/beta"
      }
    }
  }
}
node {
  name: "BoxPredictor_2/BoxEncodingPredictor_depthwise/depthwise_weights"
  op: "Const"
  attr {
    key: "dtype"
    value {
      type: DT_FLOAT
    }
  }
  attr {
    key: "value"
    value {
      tensor {
        dtype: DT_FLOAT
        tensor_shape {
          dim {
            size: 3
          }
          dim {
            size: 3
          }
          dim {
            size: 512
          }
          dim {
            size: 1
          }
        }
      }
    }
  }
}
node {
  name: "BoxPredictor_2/BoxEncodingPredictor_depthwise/depthwise_weights/read"
  op: "Identity"
  input: "BoxPredictor_2/BoxEncodingPredictor_depthwise/depthwise_weights"
  attr {
    key: "T"
    value {
      type: DT_FLOAT
    }
  }
  attr {
    key: "_class"
    value {
      list {
        s: "loc:@BoxPredictor_2/BoxEncodingPredictor_depthwise/depthwise_weights"
      }
    }
  }
}
node {
  name: "BoxPredictor_1/Reshape_1/shape"
  op: "Const"
  attr {
    key: "dtype"
    value {
      type: DT_INT32
    }
  }
  attr {
    key: "value"
    value {
      tensor {
        dtype: DT_INT32
        tensor_shape {
          dim {
            size: 3
          }
        }
      }
    }
  }
}
node {
  name: "BoxPredictor_1/ClassPredictor/biases"
  op: "Const"
  attr {
    key: "dtype"
    value {
      type: DT_FLOAT
    }
  }
  attr {
    key: "value"
    value {
      tensor {
        dtype: DT_FLOAT
        tensor_shape {
          dim {
            size: 546
          }
        }
      }
    }
  }
}
node {
  name: "BoxPredictor_1/ClassPredictor/biases/read"
  op: "Identity"
  input: "BoxPredictor_1/ClassPredictor/biases"
  attr {
    key: "T"
    value {
      type: DT_FLOAT
    }
  }
  attr {
    key: "_class"
    value {
      list {
        s: "loc:@BoxPredictor_1/ClassPredictor/biases"
      }
    }
  }
}
node {
  name: "BoxPredictor_1/ClassPredictor/weights"
  op: "Const"
  attr {
    key: "dtype"
    value {
      type: DT_FLOAT
    }
  }
  attr {
    key: "value"
    value {
      tensor {
        dtype: DT_FLOAT
        tensor_shape {
          dim {
            size: 1
          }
          dim {
            size: 1
          }
          dim {
            size: 480
          }
          dim {
            size: 546
          }
        }
      }
    }
  }
}
node {
  name: "BoxPredictor_1/ClassPredictor/weights/read"
  op: "Identity"
  input: "BoxPredictor_1/ClassPredictor/weights"
  attr {
    key: "T"
    value {
      type: DT_FLOAT
    }
  }
  attr {
    key: "_class"
    value {
      list {
        s: "loc:@BoxPredictor_1/ClassPredictor/weights"
      }
    }
  }
}
node {
  name: "BoxPredictor_1/ClassPredictor_depthwise/BatchNorm/moving_variance"
  op: "Const"
  attr {
    key: "dtype"
    value {
      type: DT_FLOAT
    }
  }
  attr {
    key: "value"
    value {
      tensor {
        dtype: DT_FLOAT
        tensor_shape {
          dim {
            size: 480
          }
        }
      }
    }
  }
}
node {
  name: "BoxPredictor_1/ClassPredictor_depthwise/BatchNorm/moving_variance/read"
  op: "Identity"
  input: "BoxPredictor_1/ClassPredictor_depthwise/BatchNorm/moving_variance"
  attr {
    key: "T"
    value {
      type: DT_FLOAT
    }
  }
  attr {
    key: "_class"
    value {
      list {
        s: "loc:@BoxPredictor_1/ClassPredictor_depthwise/BatchNorm/moving_variance"
      }
    }
  }
}
node {
  name: "BoxPredictor_1/ClassPredictor_depthwise/BatchNorm/moving_mean"
  op: "Const"
  attr {
    key: "dtype"
    value {
      type: DT_FLOAT
    }
  }
  attr {
    key: "value"
    value {
      tensor {
        dtype: DT_FLOAT
        tensor_shape {
          dim {
            size: 480
          }
        }
      }
    }
  }
}
node {
  name: "BoxPredictor_1/ClassPredictor_depthwise/BatchNorm/moving_mean/read"
  op: "Identity"
  input: "BoxPredictor_1/ClassPredictor_depthwise/BatchNorm/moving_mean"
  attr {
    key: "T"
    value {
      type: DT_FLOAT
    }
  }
  attr {
    key: "_class"
    value {
      list {
        s: "loc:@BoxPredictor_1/ClassPredictor_depthwise/BatchNorm/moving_mean"
      }
    }
  }
}
node {
  name: "BoxPredictor_1/ClassPredictor_depthwise/BatchNorm/gamma"
  op: "Const"
  attr {
    key: "dtype"
    value {
      type: DT_FLOAT
    }
  }
  attr {
    key: "value"
    value {
      tensor {
        dtype: DT_FLOAT
        tensor_shape {
          dim {
            size: 480
          }
        }
      }
    }
  }
}
node {
  name: "BoxPredictor_1/ClassPredictor_depthwise/BatchNorm/gamma/read"
  op: "Identity"
  input: "BoxPredictor_1/ClassPredictor_depthwise/BatchNorm/gamma"
  attr {
    key: "T"
    value {
      type: DT_FLOAT
    }
  }
  attr {
    key: "_class"
    value {
      list {
        s: "loc:@BoxPredictor_1/ClassPredictor_depthwise/BatchNorm/gamma"
      }
    }
  }
}
node {
  name: "BoxPredictor_1/ClassPredictor_depthwise/BatchNorm/beta"
  op: "Const"
  attr {
    key: "dtype"
    value {
      type: DT_FLOAT
    }
  }
  attr {
    key: "value"
    value {
      tensor {
        dtype: DT_FLOAT
        tensor_shape {
          dim {
            size: 480
          }
        }
      }
    }
  }
}
node {
  name: "BoxPredictor_1/ClassPredictor_depthwise/BatchNorm/beta/read"
  op: "Identity"
  input: "BoxPredictor_1/ClassPredictor_depthwise/BatchNorm/beta"
  attr {
    key: "T"
    value {
      type: DT_FLOAT
    }
  }
  attr {
    key: "_class"
    value {
      list {
        s: "loc:@BoxPredictor_1/ClassPredictor_depthwise/BatchNorm/beta"
      }
    }
  }
}
node {
  name: "BoxPredictor_1/ClassPredictor_depthwise/depthwise_weights"
  op: "Const"
  attr {
    key: "dtype"
    value {
      type: DT_FLOAT
    }
  }
  attr {
    key: "value"
    value {
      tensor {
        dtype: DT_FLOAT
        tensor_shape {
          dim {
            size: 3
          }
          dim {
            size: 3
          }
          dim {
            size: 480
          }
          dim {
            size: 1
          }
        }
      }
    }
  }
}
node {
  name: "BoxPredictor_1/ClassPredictor_depthwise/depthwise_weights/read"
  op: "Identity"
  input: "BoxPredictor_1/ClassPredictor_depthwise/depthwise_weights"
  attr {
    key: "T"
    value {
      type: DT_FLOAT
    }
  }
  attr {
    key: "_class"
    value {
      list {
        s: "loc:@BoxPredictor_1/ClassPredictor_depthwise/depthwise_weights"
      }
    }
  }
}
node {
  name: "BoxPredictor_1/Reshape/shape"
  op: "Const"
  attr {
    key: "dtype"
    value {
      type: DT_INT32
    }
  }
  attr {
    key: "value"
    value {
      tensor {
        dtype: DT_INT32
        tensor_shape {
          dim {
            size: 4
          }
        }
      }
    }
  }
}
node {
  name: "BoxPredictor_1/BoxEncodingPredictor/biases"
  op: "Const"
  attr {
    key: "dtype"
    value {
      type: DT_FLOAT
    }
  }
  attr {
    key: "value"
    value {
      tensor {
        dtype: DT_FLOAT
        tensor_shape {
          dim {
            size: 24
          }
        }
      }
    }
  }
}
node {
  name: "BoxPredictor_1/BoxEncodingPredictor/biases/read"
  op: "Identity"
  input: "BoxPredictor_1/BoxEncodingPredictor/biases"
  attr {
    key: "T"
    value {
      type: DT_FLOAT
    }
  }
  attr {
    key: "_class"
    value {
      list {
        s: "loc:@BoxPredictor_1/BoxEncodingPredictor/biases"
      }
    }
  }
}
node {
  name: "BoxPredictor_1/BoxEncodingPredictor/weights"
  op: "Const"
  attr {
    key: "dtype"
    value {
      type: DT_FLOAT
    }
  }
  attr {
    key: "value"
    value {
      tensor {
        dtype: DT_FLOAT
        tensor_shape {
          dim {
            size: 1
          }
          dim {
            size: 1
          }
          dim {
            size: 480
          }
          dim {
            size: 24
          }
        }
      }
    }
  }
}
node {
  name: "BoxPredictor_1/BoxEncodingPredictor/weights/read"
  op: "Identity"
  input: "BoxPredictor_1/BoxEncodingPredictor/weights"
  attr {
    key: "T"
    value {
      type: DT_FLOAT
    }
  }
  attr {
    key: "_class"
    value {
      list {
        s: "loc:@BoxPredictor_1/BoxEncodingPredictor/weights"
      }
    }
  }
}
node {
  name: "BoxPredictor_1/BoxEncodingPredictor_depthwise/BatchNorm/moving_variance"
  op: "Const"
  attr {
    key: "dtype"
    value {
      type: DT_FLOAT
    }
  }
  attr {
    key: "value"
    value {
      tensor {
        dtype: DT_FLOAT
        tensor_shape {
          dim {
            size: 480
          }
        }
      }
    }
  }
}
node {
  name: "BoxPredictor_1/BoxEncodingPredictor_depthwise/BatchNorm/moving_variance/read"
  op: "Identity"
  input: "BoxPredictor_1/BoxEncodingPredictor_depthwise/BatchNorm/moving_variance"
  attr {
    key: "T"
    value {
      type: DT_FLOAT
    }
  }
  attr {
    key: "_class"
    value {
      list {
        s: "loc:@BoxPredictor_1/BoxEncodingPredictor_depthwise/BatchNorm/moving_variance"
      }
    }
  }
}
node {
  name: "BoxPredictor_1/BoxEncodingPredictor_depthwise/BatchNorm/moving_mean"
  op: "Const"
  attr {
    key: "dtype"
    value {
      type: DT_FLOAT
    }
  }
  attr {
    key: "value"
    value {
      tensor {
        dtype: DT_FLOAT
        tensor_shape {
          dim {
            size: 480
          }
        }
      }
    }
  }
}
node {
  name: "BoxPredictor_1/BoxEncodingPredictor_depthwise/BatchNorm/moving_mean/read"
  op: "Identity"
  input: "BoxPredictor_1/BoxEncodingPredictor_depthwise/BatchNorm/moving_mean"
  attr {
    key: "T"
    value {
      type: DT_FLOAT
    }
  }
  attr {
    key: "_class"
    value {
      list {
        s: "loc:@BoxPredictor_1/BoxEncodingPredictor_depthwise/BatchNorm/moving_mean"
      }
    }
  }
}
node {
  name: "BoxPredictor_1/BoxEncodingPredictor_depthwise/BatchNorm/gamma"
  op: "Const"
  attr {
    key: "dtype"
    value {
      type: DT_FLOAT
    }
  }
  attr {
    key: "value"
    value {
      tensor {
        dtype: DT_FLOAT
        tensor_shape {
          dim {
            size: 480
          }
        }
      }
    }
  }
}
node {
  name: "BoxPredictor_1/BoxEncodingPredictor_depthwise/BatchNorm/gamma/read"
  op: "Identity"
  input: "BoxPredictor_1/BoxEncodingPredictor_depthwise/BatchNorm/gamma"
  attr {
    key: "T"
    value {
      type: DT_FLOAT
    }
  }
  attr {
    key: "_class"
    value {
      list {
        s: "loc:@BoxPredictor_1/BoxEncodingPredictor_depthwise/BatchNorm/gamma"
      }
    }
  }
}
node {
  name: "BoxPredictor_1/BoxEncodingPredictor_depthwise/BatchNorm/beta"
  op: "Const"
  attr {
    key: "dtype"
    value {
      type: DT_FLOAT
    }
  }
  attr {
    key: "value"
    value {
      tensor {
        dtype: DT_FLOAT
        tensor_shape {
          dim {
            size: 480
          }
        }
      }
    }
  }
}
node {
  name: "BoxPredictor_1/BoxEncodingPredictor_depthwise/BatchNorm/beta/read"
  op: "Identity"
  input: "BoxPredictor_1/BoxEncodingPredictor_depthwise/BatchNorm/beta"
  attr {
    key: "T"
    value {
      type: DT_FLOAT
    }
  }
  attr {
    key: "_class"
    value {
      list {
        s: "loc:@BoxPredictor_1/BoxEncodingPredictor_depthwise/BatchNorm/beta"
      }
    }
  }
}
node {
  name: "BoxPredictor_1/BoxEncodingPredictor_depthwise/depthwise_weights"
  op: "Const"
  attr {
    key: "dtype"
    value {
      type: DT_FLOAT
    }
  }
  attr {
    key: "value"
    value {
      tensor {
        dtype: DT_FLOAT
        tensor_shape {
          dim {
            size: 3
          }
          dim {
            size: 3
          }
          dim {
            size: 480
          }
          dim {
            size: 1
          }
        }
      }
    }
  }
}
node {
  name: "BoxPredictor_1/BoxEncodingPredictor_depthwise/depthwise_weights/read"
  op: "Identity"
  input: "BoxPredictor_1/BoxEncodingPredictor_depthwise/depthwise_weights"
  attr {
    key: "T"
    value {
      type: DT_FLOAT
    }
  }
  attr {
    key: "_class"
    value {
      list {
        s: "loc:@BoxPredictor_1/BoxEncodingPredictor_depthwise/depthwise_weights"
      }
    }
  }
}
node {
  name: "BoxPredictor_0/Reshape_1/shape"
  op: "Const"
  attr {
    key: "dtype"
    value {
      type: DT_INT32
    }
  }
  attr {
    key: "value"
    value {
      tensor {
        dtype: DT_INT32
        tensor_shape {
          dim {
            size: 3
          }
        }
      }
    }
  }
}
node {
  name: "BoxPredictor_0/ClassPredictor/biases"
  op: "Const"
  attr {
    key: "dtype"
    value {
      type: DT_FLOAT
    }
  }
  attr {
    key: "value"
    value {
      tensor {
        dtype: DT_FLOAT
        tensor_shape {
          dim {
            size: 273
          }
        }
      }
    }
  }
}
node {
  name: "BoxPredictor_0/ClassPredictor/biases/read"
  op: "Identity"
  input: "BoxPredictor_0/ClassPredictor/biases"
  attr {
    key: "T"
    value {
      type: DT_FLOAT
    }
  }
  attr {
    key: "_class"
    value {
      list {
        s: "loc:@BoxPredictor_0/ClassPredictor/biases"
      }
    }
  }
}
node {
  name: "BoxPredictor_0/ClassPredictor/weights"
  op: "Const"
  attr {
    key: "dtype"
    value {
      type: DT_FLOAT
    }
  }
  attr {
    key: "value"
    value {
      tensor {
        dtype: DT_FLOAT
        tensor_shape {
          dim {
            size: 1
          }
          dim {
            size: 1
          }
          dim {
            size: 672
          }
          dim {
            size: 273
          }
        }
      }
    }
  }
}
node {
  name: "BoxPredictor_0/ClassPredictor/weights/read"
  op: "Identity"
  input: "BoxPredictor_0/ClassPredictor/weights"
  attr {
    key: "T"
    value {
      type: DT_FLOAT
    }
  }
  attr {
    key: "_class"
    value {
      list {
        s: "loc:@BoxPredictor_0/ClassPredictor/weights"
      }
    }
  }
}
node {
  name: "BoxPredictor_0/ClassPredictor_depthwise/BatchNorm/moving_variance"
  op: "Const"
  attr {
    key: "dtype"
    value {
      type: DT_FLOAT
    }
  }
  attr {
    key: "value"
    value {
      tensor {
        dtype: DT_FLOAT
        tensor_shape {
          dim {
            size: 672
          }
        }
      }
    }
  }
}
node {
  name: "BoxPredictor_0/ClassPredictor_depthwise/BatchNorm/moving_variance/read"
  op: "Identity"
  input: "BoxPredictor_0/ClassPredictor_depthwise/BatchNorm/moving_variance"
  attr {
    key: "T"
    value {
      type: DT_FLOAT
    }
  }
  attr {
    key: "_class"
    value {
      list {
        s: "loc:@BoxPredictor_0/ClassPredictor_depthwise/BatchNorm/moving_variance"
      }
    }
  }
}
node {
  name: "BoxPredictor_0/ClassPredictor_depthwise/BatchNorm/moving_mean"
  op: "Const"
  attr {
    key: "dtype"
    value {
      type: DT_FLOAT
    }
  }
  attr {
    key: "value"
    value {
      tensor {
        dtype: DT_FLOAT
        tensor_shape {
          dim {
            size: 672
          }
        }
      }
    }
  }
}
node {
  name: "BoxPredictor_0/ClassPredictor_depthwise/BatchNorm/moving_mean/read"
  op: "Identity"
  input: "BoxPredictor_0/ClassPredictor_depthwise/BatchNorm/moving_mean"
  attr {
    key: "T"
    value {
      type: DT_FLOAT
    }
  }
  attr {
    key: "_class"
    value {
      list {
        s: "loc:@BoxPredictor_0/ClassPredictor_depthwise/BatchNorm/moving_mean"
      }
    }
  }
}
node {
  name: "BoxPredictor_0/ClassPredictor_depthwise/BatchNorm/gamma"
  op: "Const"
  attr {
    key: "dtype"
    value {
      type: DT_FLOAT
    }
  }
  attr {
    key: "value"
    value {
      tensor {
        dtype: DT_FLOAT
        tensor_shape {
          dim {
            size: 672
          }
        }
      }
    }
  }
}
node {
  name: "BoxPredictor_0/ClassPredictor_depthwise/BatchNorm/gamma/read"
  op: "Identity"
  input: "BoxPredictor_0/ClassPredictor_depthwise/BatchNorm/gamma"
  attr {
    key: "T"
    value {
      type: DT_FLOAT
    }
  }
  attr {
    key: "_class"
    value {
      list {
        s: "loc:@BoxPredictor_0/ClassPredictor_depthwise/BatchNorm/gamma"
      }
    }
  }
}
node {
  name: "BoxPredictor_0/ClassPredictor_depthwise/BatchNorm/beta"
  op: "Const"
  attr {
    key: "dtype"
    value {
      type: DT_FLOAT
    }
  }
  attr {
    key: "value"
    value {
      tensor {
        dtype: DT_FLOAT
        tensor_shape {
          dim {
            size: 672
          }
        }
      }
    }
  }
}
node {
  name: "BoxPredictor_0/ClassPredictor_depthwise/BatchNorm/beta/read"
  op: "Identity"
  input: "BoxPredictor_0/ClassPredictor_depthwise/BatchNorm/beta"
  attr {
    key: "T"
    value {
      type: DT_FLOAT
    }
  }
  attr {
    key: "_class"
    value {
      list {
        s: "loc:@BoxPredictor_0/ClassPredictor_depthwise/BatchNorm/beta"
      }
    }
  }
}
node {
  name: "BoxPredictor_0/ClassPredictor_depthwise/depthwise_weights"
  op: "Const"
  attr {
    key: "dtype"
    value {
      type: DT_FLOAT
    }
  }
  attr {
    key: "value"
    value {
      tensor {
        dtype: DT_FLOAT
        tensor_shape {
          dim {
            size: 3
          }
          dim {
            size: 3
          }
          dim {
            size: 672
          }
          dim {
            size: 1
          }
        }
      }
    }
  }
}
node {
  name: "BoxPredictor_0/ClassPredictor_depthwise/depthwise_weights/read"
  op: "Identity"
  input: "BoxPredictor_0/ClassPredictor_depthwise/depthwise_weights"
  attr {
    key: "T"
    value {
      type: DT_FLOAT
    }
  }
  attr {
    key: "_class"
    value {
      list {
        s: "loc:@BoxPredictor_0/ClassPredictor_depthwise/depthwise_weights"
      }
    }
  }
}
node {
  name: "BoxPredictor_0/Reshape/shape"
  op: "Const"
  attr {
    key: "dtype"
    value {
      type: DT_INT32
    }
  }
  attr {
    key: "value"
    value {
      tensor {
        dtype: DT_INT32
        tensor_shape {
          dim {
            size: 4
          }
        }
      }
    }
  }
}
node {
  name: "BoxPredictor_0/BoxEncodingPredictor/biases"
  op: "Const"
  attr {
    key: "dtype"
    value {
      type: DT_FLOAT
    }
  }
  attr {
    key: "value"
    value {
      tensor {
        dtype: DT_FLOAT
        tensor_shape {
          dim {
            size: 12
          }
        }
      }
    }
  }
}
node {
  name: "BoxPredictor_0/BoxEncodingPredictor/biases/read"
  op: "Identity"
  input: "BoxPredictor_0/BoxEncodingPredictor/biases"
  attr {
    key: "T"
    value {
      type: DT_FLOAT
    }
  }
  attr {
    key: "_class"
    value {
      list {
        s: "loc:@BoxPredictor_0/BoxEncodingPredictor/biases"
      }
    }
  }
}
node {
  name: "BoxPredictor_0/BoxEncodingPredictor/weights"
  op: "Const"
  attr {
    key: "dtype"
    value {
      type: DT_FLOAT
    }
  }
  attr {
    key: "value"
    value {
      tensor {
        dtype: DT_FLOAT
        tensor_shape {
          dim {
            size: 1
          }
          dim {
            size: 1
          }
          dim {
            size: 672
          }
          dim {
            size: 12
          }
        }
      }
    }
  }
}
node {
  name: "BoxPredictor_0/BoxEncodingPredictor/weights/read"
  op: "Identity"
  input: "BoxPredictor_0/BoxEncodingPredictor/weights"
  attr {
    key: "T"
    value {
      type: DT_FLOAT
    }
  }
  attr {
    key: "_class"
    value {
      list {
        s: "loc:@BoxPredictor_0/BoxEncodingPredictor/weights"
      }
    }
  }
}
node {
  name: "BoxPredictor_0/BoxEncodingPredictor_depthwise/BatchNorm/moving_variance"
  op: "Const"
  attr {
    key: "dtype"
    value {
      type: DT_FLOAT
    }
  }
  attr {
    key: "value"
    value {
      tensor {
        dtype: DT_FLOAT
        tensor_shape {
          dim {
            size: 672
          }
        }
      }
    }
  }
}
node {
  name: "BoxPredictor_0/BoxEncodingPredictor_depthwise/BatchNorm/moving_variance/read"
  op: "Identity"
  input: "BoxPredictor_0/BoxEncodingPredictor_depthwise/BatchNorm/moving_variance"
  attr {
    key: "T"
    value {
      type: DT_FLOAT
    }
  }
  attr {
    key: "_class"
    value {
      list {
        s: "loc:@BoxPredictor_0/BoxEncodingPredictor_depthwise/BatchNorm/moving_variance"
      }
    }
  }
}
node {
  name: "BoxPredictor_0/BoxEncodingPredictor_depthwise/BatchNorm/moving_mean"
  op: "Const"
  attr {
    key: "dtype"
    value {
      type: DT_FLOAT
    }
  }
  attr {
    key: "value"
    value {
      tensor {
        dtype: DT_FLOAT
        tensor_shape {
          dim {
            size: 672
          }
        }
      }
    }
  }
}
node {
  name: "BoxPredictor_0/BoxEncodingPredictor_depthwise/BatchNorm/moving_mean/read"
  op: "Identity"
  input: "BoxPredictor_0/BoxEncodingPredictor_depthwise/BatchNorm/moving_mean"
  attr {
    key: "T"
    value {
      type: DT_FLOAT
    }
  }
  attr {
    key: "_class"
    value {
      list {
        s: "loc:@BoxPredictor_0/BoxEncodingPredictor_depthwise/BatchNorm/moving_mean"
      }
    }
  }
}
node {
  name: "BoxPredictor_0/BoxEncodingPredictor_depthwise/BatchNorm/gamma"
  op: "Const"
  attr {
    key: "dtype"
    value {
      type: DT_FLOAT
    }
  }
  attr {
    key: "value"
    value {
      tensor {
        dtype: DT_FLOAT
        tensor_shape {
          dim {
            size: 672
          }
        }
      }
    }
  }
}
node {
  name: "BoxPredictor_0/BoxEncodingPredictor_depthwise/BatchNorm/gamma/read"
  op: "Identity"
  input: "BoxPredictor_0/BoxEncodingPredictor_depthwise/BatchNorm/gamma"
  attr {
    key: "T"
    value {
      type: DT_FLOAT
    }
  }
  attr {
    key: "_class"
    value {
      list {
        s: "loc:@BoxPredictor_0/BoxEncodingPredictor_depthwise/BatchNorm/gamma"
      }
    }
  }
}
node {
  name: "BoxPredictor_0/BoxEncodingPredictor_depthwise/BatchNorm/beta"
  op: "Const"
  attr {
    key: "dtype"
    value {
      type: DT_FLOAT
    }
  }
  attr {
    key: "value"
    value {
      tensor {
        dtype: DT_FLOAT
        tensor_shape {
          dim {
            size: 672
          }
        }
      }
    }
  }
}
node {
  name: "BoxPredictor_0/BoxEncodingPredictor_depthwise/BatchNorm/beta/read"
  op: "Identity"
  input: "BoxPredictor_0/BoxEncodingPredictor_depthwise/BatchNorm/beta"
  attr {
    key: "T"
    value {
      type: DT_FLOAT
    }
  }
  attr {
    key: "_class"
    value {
      list {
        s: "loc:@BoxPredictor_0/BoxEncodingPredictor_depthwise/BatchNorm/beta"
      }
    }
  }
}
node {
  name: "BoxPredictor_0/BoxEncodingPredictor_depthwise/depthwise_weights"
  op: "Const"
  attr {
    key: "dtype"
    value {
      type: DT_FLOAT
    }
  }
  attr {
    key: "value"
    value {
      tensor {
        dtype: DT_FLOAT
        tensor_shape {
          dim {
            size: 3
          }
          dim {
            size: 3
          }
          dim {
            size: 672
          }
          dim {
            size: 1
          }
        }
      }
    }
  }
}
node {
  name: "BoxPredictor_0/BoxEncodingPredictor_depthwise/depthwise_weights/read"
  op: "Identity"
  input: "BoxPredictor_0/BoxEncodingPredictor_depthwise/depthwise_weights"
  attr {
    key: "T"
    value {
      type: DT_FLOAT
    }
  }
  attr {
    key: "_class"
    value {
      list {
        s: "loc:@BoxPredictor_0/BoxEncodingPredictor_depthwise/depthwise_weights"
      }
    }
  }
}
node {
  name: "FeatureExtractor/MobilenetV3/layer_17_2_Conv2d_5_3x3_s2_128/BatchNorm/moving_variance"
  op: "Const"
  attr {
    key: "dtype"
    value {
      type: DT_FLOAT
    }
  }
  attr {
    key: "value"
    value {
      tensor {
        dtype: DT_FLOAT
        tensor_shape {
          dim {
            size: 128
          }
        }
      }
    }
  }
}
node {
  name: "FeatureExtractor/MobilenetV3/layer_17_2_Conv2d_5_3x3_s2_128/BatchNorm/moving_variance/read"
  op: "Identity"
  input: "FeatureExtractor/MobilenetV3/layer_17_2_Conv2d_5_3x3_s2_128/BatchNorm/moving_variance"
  attr {
    key: "T"
    value {
      type: DT_FLOAT
    }
  }
  attr {
    key: "_class"
    value {
      list {
        s: "loc:@FeatureExtractor/MobilenetV3/layer_17_2_Conv2d_5_3x3_s2_128/BatchNorm/moving_variance"
      }
    }
  }
}
node {
  name: "FeatureExtractor/MobilenetV3/layer_17_2_Conv2d_5_3x3_s2_128/BatchNorm/moving_mean"
  op: "Const"
  attr {
    key: "dtype"
    value {
      type: DT_FLOAT
    }
  }
  attr {
    key: "value"
    value {
      tensor {
        dtype: DT_FLOAT
        tensor_shape {
          dim {
            size: 128
          }
        }
      }
    }
  }
}
node {
  name: "FeatureExtractor/MobilenetV3/layer_17_2_Conv2d_5_3x3_s2_128/BatchNorm/moving_mean/read"
  op: "Identity"
  input: "FeatureExtractor/MobilenetV3/layer_17_2_Conv2d_5_3x3_s2_128/BatchNorm/moving_mean"
  attr {
    key: "T"
    value {
      type: DT_FLOAT
    }
  }
  attr {
    key: "_class"
    value {
      list {
        s: "loc:@FeatureExtractor/MobilenetV3/layer_17_2_Conv2d_5_3x3_s2_128/BatchNorm/moving_mean"
      }
    }
  }
}
node {
  name: "FeatureExtractor/MobilenetV3/layer_17_2_Conv2d_5_3x3_s2_128/BatchNorm/gamma"
  op: "Const"
  attr {
    key: "dtype"
    value {
      type: DT_FLOAT
    }
  }
  attr {
    key: "value"
    value {
      tensor {
        dtype: DT_FLOAT
        tensor_shape {
          dim {
            size: 128
          }
        }
      }
    }
  }
}
node {
  name: "FeatureExtractor/MobilenetV3/layer_17_2_Conv2d_5_3x3_s2_128/BatchNorm/gamma/read"
  op: "Identity"
  input: "FeatureExtractor/MobilenetV3/layer_17_2_Conv2d_5_3x3_s2_128/BatchNorm/gamma"
  attr {
    key: "T"
    value {
      type: DT_FLOAT
    }
  }
  attr {
    key: "_class"
    value {
      list {
        s: "loc:@FeatureExtractor/MobilenetV3/layer_17_2_Conv2d_5_3x3_s2_128/BatchNorm/gamma"
      }
    }
  }
}
node {
  name: "FeatureExtractor/MobilenetV3/layer_17_2_Conv2d_5_3x3_s2_128/BatchNorm/beta"
  op: "Const"
  attr {
    key: "dtype"
    value {
      type: DT_FLOAT
    }
  }
  attr {
    key: "value"
    value {
      tensor {
        dtype: DT_FLOAT
        tensor_shape {
          dim {
            size: 128
          }
        }
      }
    }
  }
}
node {
  name: "FeatureExtractor/MobilenetV3/layer_17_2_Conv2d_5_3x3_s2_128/BatchNorm/beta/read"
  op: "Identity"
  input: "FeatureExtractor/MobilenetV3/layer_17_2_Conv2d_5_3x3_s2_128/BatchNorm/beta"
  attr {
    key: "T"
    value {
      type: DT_FLOAT
    }
  }
  attr {
    key: "_class"
    value {
      list {
        s: "loc:@FeatureExtractor/MobilenetV3/layer_17_2_Conv2d_5_3x3_s2_128/BatchNorm/beta"
      }
    }
  }
}
node {
  name: "FeatureExtractor/MobilenetV3/layer_17_2_Conv2d_5_3x3_s2_128/weights"
  op: "Const"
  attr {
    key: "dtype"
    value {
      type: DT_FLOAT
    }
  }
  attr {
    key: "value"
    value {
      tensor {
        dtype: DT_FLOAT
        tensor_shape {
          dim {
            size: 1
          }
          dim {
            size: 1
          }
          dim {
            size: 64
          }
          dim {
            size: 128
          }
        }
      }
    }
  }
}
node {
  name: "FeatureExtractor/MobilenetV3/layer_17_2_Conv2d_5_3x3_s2_128/weights/read"
  op: "Identity"
  input: "FeatureExtractor/MobilenetV3/layer_17_2_Conv2d_5_3x3_s2_128/weights"
  attr {
    key: "T"
    value {
      type: DT_FLOAT
    }
  }
  attr {
    key: "_class"
    value {
      list {
        s: "loc:@FeatureExtractor/MobilenetV3/layer_17_2_Conv2d_5_3x3_s2_128/weights"
      }
    }
  }
}
node {
  name: "FeatureExtractor/MobilenetV3/layer_17_2_Conv2d_5_3x3_s2_128_depthwise/BatchNorm/moving_variance"
  op: "Const"
  attr {
    key: "dtype"
    value {
      type: DT_FLOAT
    }
  }
  attr {
    key: "value"
    value {
      tensor {
        dtype: DT_FLOAT
        tensor_shape {
          dim {
            size: 64
          }
        }
      }
    }
  }
}
node {
  name: "FeatureExtractor/MobilenetV3/layer_17_2_Conv2d_5_3x3_s2_128_depthwise/BatchNorm/moving_variance/read"
  op: "Identity"
  input: "FeatureExtractor/MobilenetV3/layer_17_2_Conv2d_5_3x3_s2_128_depthwise/BatchNorm/moving_variance"
  attr {
    key: "T"
    value {
      type: DT_FLOAT
    }
  }
  attr {
    key: "_class"
    value {
      list {
        s: "loc:@FeatureExtractor/MobilenetV3/layer_17_2_Conv2d_5_3x3_s2_128_depthwise/BatchNorm/moving_variance"
      }
    }
  }
}
node {
  name: "FeatureExtractor/MobilenetV3/layer_17_2_Conv2d_5_3x3_s2_128_depthwise/BatchNorm/moving_mean"
  op: "Const"
  attr {
    key: "dtype"
    value {
      type: DT_FLOAT
    }
  }
  attr {
    key: "value"
    value {
      tensor {
        dtype: DT_FLOAT
        tensor_shape {
          dim {
            size: 64
          }
        }
      }
    }
  }
}
node {
  name: "FeatureExtractor/MobilenetV3/layer_17_2_Conv2d_5_3x3_s2_128_depthwise/BatchNorm/moving_mean/read"
  op: "Identity"
  input: "FeatureExtractor/MobilenetV3/layer_17_2_Conv2d_5_3x3_s2_128_depthwise/BatchNorm/moving_mean"
  attr {
    key: "T"
    value {
      type: DT_FLOAT
    }
  }
  attr {
    key: "_class"
    value {
      list {
        s: "loc:@FeatureExtractor/MobilenetV3/layer_17_2_Conv2d_5_3x3_s2_128_depthwise/BatchNorm/moving_mean"
      }
    }
  }
}
node {
  name: "FeatureExtractor/MobilenetV3/layer_17_2_Conv2d_5_3x3_s2_128_depthwise/BatchNorm/gamma"
  op: "Const"
  attr {
    key: "dtype"
    value {
      type: DT_FLOAT
    }
  }
  attr {
    key: "value"
    value {
      tensor {
        dtype: DT_FLOAT
        tensor_shape {
          dim {
            size: 64
          }
        }
      }
    }
  }
}
node {
  name: "FeatureExtractor/MobilenetV3/layer_17_2_Conv2d_5_3x3_s2_128_depthwise/BatchNorm/gamma/read"
  op: "Identity"
  input: "FeatureExtractor/MobilenetV3/layer_17_2_Conv2d_5_3x3_s2_128_depthwise/BatchNorm/gamma"
  attr {
    key: "T"
    value {
      type: DT_FLOAT
    }
  }
  attr {
    key: "_class"
    value {
      list {
        s: "loc:@FeatureExtractor/MobilenetV3/layer_17_2_Conv2d_5_3x3_s2_128_depthwise/BatchNorm/gamma"
      }
    }
  }
}
node {
  name: "FeatureExtractor/MobilenetV3/layer_17_2_Conv2d_5_3x3_s2_128_depthwise/BatchNorm/beta"
  op: "Const"
  attr {
    key: "dtype"
    value {
      type: DT_FLOAT
    }
  }
  attr {
    key: "value"
    value {
      tensor {
        dtype: DT_FLOAT
        tensor_shape {
          dim {
            size: 64
          }
        }
      }
    }
  }
}
node {
  name: "FeatureExtractor/MobilenetV3/layer_17_2_Conv2d_5_3x3_s2_128_depthwise/BatchNorm/beta/read"
  op: "Identity"
  input: "FeatureExtractor/MobilenetV3/layer_17_2_Conv2d_5_3x3_s2_128_depthwise/BatchNorm/beta"
  attr {
    key: "T"
    value {
      type: DT_FLOAT
    }
  }
  attr {
    key: "_class"
    value {
      list {
        s: "loc:@FeatureExtractor/MobilenetV3/layer_17_2_Conv2d_5_3x3_s2_128_depthwise/BatchNorm/beta"
      }
    }
  }
}
node {
  name: "FeatureExtractor/MobilenetV3/layer_17_2_Conv2d_5_3x3_s2_128_depthwise/depthwise_weights"
  op: "Const"
  attr {
    key: "dtype"
    value {
      type: DT_FLOAT
    }
  }
  attr {
    key: "value"
    value {
      tensor {
        dtype: DT_FLOAT
        tensor_shape {
          dim {
            size: 3
          }
          dim {
            size: 3
          }
          dim {
            size: 64
          }
          dim {
            size: 1
          }
        }
      }
    }
  }
}
node {
  name: "FeatureExtractor/MobilenetV3/layer_17_2_Conv2d_5_3x3_s2_128_depthwise/depthwise_weights/read"
  op: "Identity"
  input: "FeatureExtractor/MobilenetV3/layer_17_2_Conv2d_5_3x3_s2_128_depthwise/depthwise_weights"
  attr {
    key: "T"
    value {
      type: DT_FLOAT
    }
  }
  attr {
    key: "_class"
    value {
      list {
        s: "loc:@FeatureExtractor/MobilenetV3/layer_17_2_Conv2d_5_3x3_s2_128_depthwise/depthwise_weights"
      }
    }
  }
}
node {
  name: "FeatureExtractor/MobilenetV3/layer_17_1_Conv2d_5_1x1_64/BatchNorm/moving_variance"
  op: "Const"
  attr {
    key: "dtype"
    value {
      type: DT_FLOAT
    }
  }
  attr {
    key: "value"
    value {
      tensor {
        dtype: DT_FLOAT
        tensor_shape {
          dim {
            size: 64
          }
        }
      }
    }
  }
}
node {
  name: "FeatureExtractor/MobilenetV3/layer_17_1_Conv2d_5_1x1_64/BatchNorm/moving_variance/read"
  op: "Identity"
  input: "FeatureExtractor/MobilenetV3/layer_17_1_Conv2d_5_1x1_64/BatchNorm/moving_variance"
  attr {
    key: "T"
    value {
      type: DT_FLOAT
    }
  }
  attr {
    key: "_class"
    value {
      list {
        s: "loc:@FeatureExtractor/MobilenetV3/layer_17_1_Conv2d_5_1x1_64/BatchNorm/moving_variance"
      }
    }
  }
}
node {
  name: "FeatureExtractor/MobilenetV3/layer_17_1_Conv2d_5_1x1_64/BatchNorm/moving_mean"
  op: "Const"
  attr {
    key: "dtype"
    value {
      type: DT_FLOAT
    }
  }
  attr {
    key: "value"
    value {
      tensor {
        dtype: DT_FLOAT
        tensor_shape {
          dim {
            size: 64
          }
        }
      }
    }
  }
}
node {
  name: "FeatureExtractor/MobilenetV3/layer_17_1_Conv2d_5_1x1_64/BatchNorm/moving_mean/read"
  op: "Identity"
  input: "FeatureExtractor/MobilenetV3/layer_17_1_Conv2d_5_1x1_64/BatchNorm/moving_mean"
  attr {
    key: "T"
    value {
      type: DT_FLOAT
    }
  }
  attr {
    key: "_class"
    value {
      list {
        s: "loc:@FeatureExtractor/MobilenetV3/layer_17_1_Conv2d_5_1x1_64/BatchNorm/moving_mean"
      }
    }
  }
}
node {
  name: "FeatureExtractor/MobilenetV3/layer_17_1_Conv2d_5_1x1_64/BatchNorm/gamma"
  op: "Const"
  attr {
    key: "dtype"
    value {
      type: DT_FLOAT
    }
  }
  attr {
    key: "value"
    value {
      tensor {
        dtype: DT_FLOAT
        tensor_shape {
          dim {
            size: 64
          }
        }
      }
    }
  }
}
node {
  name: "FeatureExtractor/MobilenetV3/layer_17_1_Conv2d_5_1x1_64/BatchNorm/gamma/read"
  op: "Identity"
  input: "FeatureExtractor/MobilenetV3/layer_17_1_Conv2d_5_1x1_64/BatchNorm/gamma"
  attr {
    key: "T"
    value {
      type: DT_FLOAT
    }
  }
  attr {
    key: "_class"
    value {
      list {
        s: "loc:@FeatureExtractor/MobilenetV3/layer_17_1_Conv2d_5_1x1_64/BatchNorm/gamma"
      }
    }
  }
}
node {
  name: "FeatureExtractor/MobilenetV3/layer_17_1_Conv2d_5_1x1_64/BatchNorm/beta"
  op: "Const"
  attr {
    key: "dtype"
    value {
      type: DT_FLOAT
    }
  }
  attr {
    key: "value"
    value {
      tensor {
        dtype: DT_FLOAT
        tensor_shape {
          dim {
            size: 64
          }
        }
      }
    }
  }
}
node {
  name: "FeatureExtractor/MobilenetV3/layer_17_1_Conv2d_5_1x1_64/BatchNorm/beta/read"
  op: "Identity"
  input: "FeatureExtractor/MobilenetV3/layer_17_1_Conv2d_5_1x1_64/BatchNorm/beta"
  attr {
    key: "T"
    value {
      type: DT_FLOAT
    }
  }
  attr {
    key: "_class"
    value {
      list {
        s: "loc:@FeatureExtractor/MobilenetV3/layer_17_1_Conv2d_5_1x1_64/BatchNorm/beta"
      }
    }
  }
}
node {
  name: "FeatureExtractor/MobilenetV3/layer_17_1_Conv2d_5_1x1_64/weights"
  op: "Const"
  attr {
    key: "dtype"
    value {
      type: DT_FLOAT
    }
  }
  attr {
    key: "value"
    value {
      tensor {
        dtype: DT_FLOAT
        tensor_shape {
          dim {
            size: 1
          }
          dim {
            size: 1
          }
          dim {
            size: 256
          }
          dim {
            size: 64
          }
        }
      }
    }
  }
}
node {
  name: "FeatureExtractor/MobilenetV3/layer_17_1_Conv2d_5_1x1_64/weights/read"
  op: "Identity"
  input: "FeatureExtractor/MobilenetV3/layer_17_1_Conv2d_5_1x1_64/weights"
  attr {
    key: "T"
    value {
      type: DT_FLOAT
    }
  }
  attr {
    key: "_class"
    value {
      list {
        s: "loc:@FeatureExtractor/MobilenetV3/layer_17_1_Conv2d_5_1x1_64/weights"
      }
    }
  }
}
node {
  name: "FeatureExtractor/MobilenetV3/layer_17_2_Conv2d_4_3x3_s2_256/BatchNorm/moving_variance"
  op: "Const"
  attr {
    key: "dtype"
    value {
      type: DT_FLOAT
    }
  }
  attr {
    key: "value"
    value {
      tensor {
        dtype: DT_FLOAT
        tensor_shape {
          dim {
            size: 256
          }
        }
      }
    }
  }
}
node {
  name: "FeatureExtractor/MobilenetV3/layer_17_2_Conv2d_4_3x3_s2_256/BatchNorm/moving_variance/read"
  op: "Identity"
  input: "FeatureExtractor/MobilenetV3/layer_17_2_Conv2d_4_3x3_s2_256/BatchNorm/moving_variance"
  attr {
    key: "T"
    value {
      type: DT_FLOAT
    }
  }
  attr {
    key: "_class"
    value {
      list {
        s: "loc:@FeatureExtractor/MobilenetV3/layer_17_2_Conv2d_4_3x3_s2_256/BatchNorm/moving_variance"
      }
    }
  }
}
node {
  name: "FeatureExtractor/MobilenetV3/layer_17_2_Conv2d_4_3x3_s2_256/BatchNorm/moving_mean"
  op: "Const"
  attr {
    key: "dtype"
    value {
      type: DT_FLOAT
    }
  }
  attr {
    key: "value"
    value {
      tensor {
        dtype: DT_FLOAT
        tensor_shape {
          dim {
            size: 256
          }
        }
      }
    }
  }
}
node {
  name: "FeatureExtractor/MobilenetV3/layer_17_2_Conv2d_4_3x3_s2_256/BatchNorm/moving_mean/read"
  op: "Identity"
  input: "FeatureExtractor/MobilenetV3/layer_17_2_Conv2d_4_3x3_s2_256/BatchNorm/moving_mean"
  attr {
    key: "T"
    value {
      type: DT_FLOAT
    }
  }
  attr {
    key: "_class"
    value {
      list {
        s: "loc:@FeatureExtractor/MobilenetV3/layer_17_2_Conv2d_4_3x3_s2_256/BatchNorm/moving_mean"
      }
    }
  }
}
node {
  name: "FeatureExtractor/MobilenetV3/layer_17_2_Conv2d_4_3x3_s2_256/BatchNorm/gamma"
  op: "Const"
  attr {
    key: "dtype"
    value {
      type: DT_FLOAT
    }
  }
  attr {
    key: "value"
    value {
      tensor {
        dtype: DT_FLOAT
        tensor_shape {
          dim {
            size: 256
          }
        }
      }
    }
  }
}
node {
  name: "FeatureExtractor/MobilenetV3/layer_17_2_Conv2d_4_3x3_s2_256/BatchNorm/gamma/read"
  op: "Identity"
  input: "FeatureExtractor/MobilenetV3/layer_17_2_Conv2d_4_3x3_s2_256/BatchNorm/gamma"
  attr {
    key: "T"
    value {
      type: DT_FLOAT
    }
  }
  attr {
    key: "_class"
    value {
      list {
        s: "loc:@FeatureExtractor/MobilenetV3/layer_17_2_Conv2d_4_3x3_s2_256/BatchNorm/gamma"
      }
    }
  }
}
node {
  name: "FeatureExtractor/MobilenetV3/layer_17_2_Conv2d_4_3x3_s2_256/BatchNorm/beta"
  op: "Const"
  attr {
    key: "dtype"
    value {
      type: DT_FLOAT
    }
  }
  attr {
    key: "value"
    value {
      tensor {
        dtype: DT_FLOAT
        tensor_shape {
          dim {
            size: 256
          }
        }
      }
    }
  }
}
node {
  name: "FeatureExtractor/MobilenetV3/layer_17_2_Conv2d_4_3x3_s2_256/BatchNorm/beta/read"
  op: "Identity"
  input: "FeatureExtractor/MobilenetV3/layer_17_2_Conv2d_4_3x3_s2_256/BatchNorm/beta"
  attr {
    key: "T"
    value {
      type: DT_FLOAT
    }
  }
  attr {
    key: "_class"
    value {
      list {
        s: "loc:@FeatureExtractor/MobilenetV3/layer_17_2_Conv2d_4_3x3_s2_256/BatchNorm/beta"
      }
    }
  }
}
node {
  name: "FeatureExtractor/MobilenetV3/layer_17_2_Conv2d_4_3x3_s2_256/weights"
  op: "Const"
  attr {
    key: "dtype"
    value {
      type: DT_FLOAT
    }
  }
  attr {
    key: "value"
    value {
      tensor {
        dtype: DT_FLOAT
        tensor_shape {
          dim {
            size: 1
          }
          dim {
            size: 1
          }
          dim {
            size: 128
          }
          dim {
            size: 256
          }
        }
      }
    }
  }
}
node {
  name: "FeatureExtractor/MobilenetV3/layer_17_2_Conv2d_4_3x3_s2_256/weights/read"
  op: "Identity"
  input: "FeatureExtractor/MobilenetV3/layer_17_2_Conv2d_4_3x3_s2_256/weights"
  attr {
    key: "T"
    value {
      type: DT_FLOAT
    }
  }
  attr {
    key: "_class"
    value {
      list {
        s: "loc:@FeatureExtractor/MobilenetV3/layer_17_2_Conv2d_4_3x3_s2_256/weights"
      }
    }
  }
}
node {
  name: "FeatureExtractor/MobilenetV3/layer_17_2_Conv2d_4_3x3_s2_256_depthwise/BatchNorm/moving_variance"
  op: "Const"
  attr {
    key: "dtype"
    value {
      type: DT_FLOAT
    }
  }
  attr {
    key: "value"
    value {
      tensor {
        dtype: DT_FLOAT
        tensor_shape {
          dim {
            size: 128
          }
        }
      }
    }
  }
}
node {
  name: "FeatureExtractor/MobilenetV3/layer_17_2_Conv2d_4_3x3_s2_256_depthwise/BatchNorm/moving_variance/read"
  op: "Identity"
  input: "FeatureExtractor/MobilenetV3/layer_17_2_Conv2d_4_3x3_s2_256_depthwise/BatchNorm/moving_variance"
  attr {
    key: "T"
    value {
      type: DT_FLOAT
    }
  }
  attr {
    key: "_class"
    value {
      list {
        s: "loc:@FeatureExtractor/MobilenetV3/layer_17_2_Conv2d_4_3x3_s2_256_depthwise/BatchNorm/moving_variance"
      }
    }
  }
}
node {
  name: "FeatureExtractor/MobilenetV3/layer_17_2_Conv2d_4_3x3_s2_256_depthwise/BatchNorm/moving_mean"
  op: "Const"
  attr {
    key: "dtype"
    value {
      type: DT_FLOAT
    }
  }
  attr {
    key: "value"
    value {
      tensor {
        dtype: DT_FLOAT
        tensor_shape {
          dim {
            size: 128
          }
        }
      }
    }
  }
}
node {
  name: "FeatureExtractor/MobilenetV3/layer_17_2_Conv2d_4_3x3_s2_256_depthwise/BatchNorm/moving_mean/read"
  op: "Identity"
  input: "FeatureExtractor/MobilenetV3/layer_17_2_Conv2d_4_3x3_s2_256_depthwise/BatchNorm/moving_mean"
  attr {
    key: "T"
    value {
      type: DT_FLOAT
    }
  }
  attr {
    key: "_class"
    value {
      list {
        s: "loc:@FeatureExtractor/MobilenetV3/layer_17_2_Conv2d_4_3x3_s2_256_depthwise/BatchNorm/moving_mean"
      }
    }
  }
}
node {
  name: "FeatureExtractor/MobilenetV3/layer_17_2_Conv2d_4_3x3_s2_256_depthwise/BatchNorm/gamma"
  op: "Const"
  attr {
    key: "dtype"
    value {
      type: DT_FLOAT
    }
  }
  attr {
    key: "value"
    value {
      tensor {
        dtype: DT_FLOAT
        tensor_shape {
          dim {
            size: 128
          }
        }
      }
    }
  }
}
node {
  name: "FeatureExtractor/MobilenetV3/layer_17_2_Conv2d_4_3x3_s2_256_depthwise/BatchNorm/gamma/read"
  op: "Identity"
  input: "FeatureExtractor/MobilenetV3/layer_17_2_Conv2d_4_3x3_s2_256_depthwise/BatchNorm/gamma"
  attr {
    key: "T"
    value {
      type: DT_FLOAT
    }
  }
  attr {
    key: "_class"
    value {
      list {
        s: "loc:@FeatureExtractor/MobilenetV3/layer_17_2_Conv2d_4_3x3_s2_256_depthwise/BatchNorm/gamma"
      }
    }
  }
}
node {
  name: "FeatureExtractor/MobilenetV3/layer_17_2_Conv2d_4_3x3_s2_256_depthwise/BatchNorm/beta"
  op: "Const"
  attr {
    key: "dtype"
    value {
      type: DT_FLOAT
    }
  }
  attr {
    key: "value"
    value {
      tensor {
        dtype: DT_FLOAT
        tensor_shape {
          dim {
            size: 128
          }
        }
      }
    }
  }
}
node {
  name: "FeatureExtractor/MobilenetV3/layer_17_2_Conv2d_4_3x3_s2_256_depthwise/BatchNorm/beta/read"
  op: "Identity"
  input: "FeatureExtractor/MobilenetV3/layer_17_2_Conv2d_4_3x3_s2_256_depthwise/BatchNorm/beta"
  attr {
    key: "T"
    value {
      type: DT_FLOAT
    }
  }
  attr {
    key: "_class"
    value {
      list {
        s: "loc:@FeatureExtractor/MobilenetV3/layer_17_2_Conv2d_4_3x3_s2_256_depthwise/BatchNorm/beta"
      }
    }
  }
}
node {
  name: "FeatureExtractor/MobilenetV3/layer_17_2_Conv2d_4_3x3_s2_256_depthwise/depthwise_weights"
  op: "Const"
  attr {
    key: "dtype"
    value {
      type: DT_FLOAT
    }
  }
  attr {
    key: "value"
    value {
      tensor {
        dtype: DT_FLOAT
        tensor_shape {
          dim {
            size: 3
          }
          dim {
            size: 3
          }
          dim {
            size: 128
          }
          dim {
            size: 1
          }
        }
      }
    }
  }
}
node {
  name: "FeatureExtractor/MobilenetV3/layer_17_2_Conv2d_4_3x3_s2_256_depthwise/depthwise_weights/read"
  op: "Identity"
  input: "FeatureExtractor/MobilenetV3/layer_17_2_Conv2d_4_3x3_s2_256_depthwise/depthwise_weights"
  attr {
    key: "T"
    value {
      type: DT_FLOAT
    }
  }
  attr {
    key: "_class"
    value {
      list {
        s: "loc:@FeatureExtractor/MobilenetV3/layer_17_2_Conv2d_4_3x3_s2_256_depthwise/depthwise_weights"
      }
    }
  }
}
node {
  name: "FeatureExtractor/MobilenetV3/layer_17_1_Conv2d_4_1x1_128/BatchNorm/moving_variance"
  op: "Const"
  attr {
    key: "dtype"
    value {
      type: DT_FLOAT
    }
  }
  attr {
    key: "value"
    value {
      tensor {
        dtype: DT_FLOAT
        tensor_shape {
          dim {
            size: 128
          }
        }
      }
    }
  }
}
node {
  name: "FeatureExtractor/MobilenetV3/layer_17_1_Conv2d_4_1x1_128/BatchNorm/moving_variance/read"
  op: "Identity"
  input: "FeatureExtractor/MobilenetV3/layer_17_1_Conv2d_4_1x1_128/BatchNorm/moving_variance"
  attr {
    key: "T"
    value {
      type: DT_FLOAT
    }
  }
  attr {
    key: "_class"
    value {
      list {
        s: "loc:@FeatureExtractor/MobilenetV3/layer_17_1_Conv2d_4_1x1_128/BatchNorm/moving_variance"
      }
    }
  }
}
node {
  name: "FeatureExtractor/MobilenetV3/layer_17_1_Conv2d_4_1x1_128/BatchNorm/moving_mean"
  op: "Const"
  attr {
    key: "dtype"
    value {
      type: DT_FLOAT
    }
  }
  attr {
    key: "value"
    value {
      tensor {
        dtype: DT_FLOAT
        tensor_shape {
          dim {
            size: 128
          }
        }
      }
    }
  }
}
node {
  name: "FeatureExtractor/MobilenetV3/layer_17_1_Conv2d_4_1x1_128/BatchNorm/moving_mean/read"
  op: "Identity"
  input: "FeatureExtractor/MobilenetV3/layer_17_1_Conv2d_4_1x1_128/BatchNorm/moving_mean"
  attr {
    key: "T"
    value {
      type: DT_FLOAT
    }
  }
  attr {
    key: "_class"
    value {
      list {
        s: "loc:@FeatureExtractor/MobilenetV3/layer_17_1_Conv2d_4_1x1_128/BatchNorm/moving_mean"
      }
    }
  }
}
node {
  name: "FeatureExtractor/MobilenetV3/layer_17_1_Conv2d_4_1x1_128/BatchNorm/gamma"
  op: "Const"
  attr {
    key: "dtype"
    value {
      type: DT_FLOAT
    }
  }
  attr {
    key: "value"
    value {
      tensor {
        dtype: DT_FLOAT
        tensor_shape {
          dim {
            size: 128
          }
        }
      }
    }
  }
}
node {
  name: "FeatureExtractor/MobilenetV3/layer_17_1_Conv2d_4_1x1_128/BatchNorm/gamma/read"
  op: "Identity"
  input: "FeatureExtractor/MobilenetV3/layer_17_1_Conv2d_4_1x1_128/BatchNorm/gamma"
  attr {
    key: "T"
    value {
      type: DT_FLOAT
    }
  }
  attr {
    key: "_class"
    value {
      list {
        s: "loc:@FeatureExtractor/MobilenetV3/layer_17_1_Conv2d_4_1x1_128/BatchNorm/gamma"
      }
    }
  }
}
node {
  name: "FeatureExtractor/MobilenetV3/layer_17_1_Conv2d_4_1x1_128/BatchNorm/beta"
  op: "Const"
  attr {
    key: "dtype"
    value {
      type: DT_FLOAT
    }
  }
  attr {
    key: "value"
    value {
      tensor {
        dtype: DT_FLOAT
        tensor_shape {
          dim {
            size: 128
          }
        }
      }
    }
  }
}
node {
  name: "FeatureExtractor/MobilenetV3/layer_17_1_Conv2d_4_1x1_128/BatchNorm/beta/read"
  op: "Identity"
  input: "FeatureExtractor/MobilenetV3/layer_17_1_Conv2d_4_1x1_128/BatchNorm/beta"
  attr {
    key: "T"
    value {
      type: DT_FLOAT
    }
  }
  attr {
    key: "_class"
    value {
      list {
        s: "loc:@FeatureExtractor/MobilenetV3/layer_17_1_Conv2d_4_1x1_128/BatchNorm/beta"
      }
    }
  }
}
node {
  name: "FeatureExtractor/MobilenetV3/layer_17_1_Conv2d_4_1x1_128/weights"
  op: "Const"
  attr {
    key: "dtype"
    value {
      type: DT_FLOAT
    }
  }
  attr {
    key: "value"
    value {
      tensor {
        dtype: DT_FLOAT
        tensor_shape {
          dim {
            size: 1
          }
          dim {
            size: 1
          }
          dim {
            size: 256
          }
          dim {
            size: 128
          }
        }
      }
    }
  }
}
node {
  name: "FeatureExtractor/MobilenetV3/layer_17_1_Conv2d_4_1x1_128/weights/read"
  op: "Identity"
  input: "FeatureExtractor/MobilenetV3/layer_17_1_Conv2d_4_1x1_128/weights"
  attr {
    key: "T"
    value {
      type: DT_FLOAT
    }
  }
  attr {
    key: "_class"
    value {
      list {
        s: "loc:@FeatureExtractor/MobilenetV3/layer_17_1_Conv2d_4_1x1_128/weights"
      }
    }
  }
}
node {
  name: "FeatureExtractor/MobilenetV3/layer_17_2_Conv2d_3_3x3_s2_256/BatchNorm/moving_variance"
  op: "Const"
  attr {
    key: "dtype"
    value {
      type: DT_FLOAT
    }
  }
  attr {
    key: "value"
    value {
      tensor {
        dtype: DT_FLOAT
        tensor_shape {
          dim {
            size: 256
          }
        }
      }
    }
  }
}
node {
  name: "FeatureExtractor/MobilenetV3/layer_17_2_Conv2d_3_3x3_s2_256/BatchNorm/moving_variance/read"
  op: "Identity"
  input: "FeatureExtractor/MobilenetV3/layer_17_2_Conv2d_3_3x3_s2_256/BatchNorm/moving_variance"
  attr {
    key: "T"
    value {
      type: DT_FLOAT
    }
  }
  attr {
    key: "_class"
    value {
      list {
        s: "loc:@FeatureExtractor/MobilenetV3/layer_17_2_Conv2d_3_3x3_s2_256/BatchNorm/moving_variance"
      }
    }
  }
}
node {
  name: "FeatureExtractor/MobilenetV3/layer_17_2_Conv2d_3_3x3_s2_256/BatchNorm/moving_mean"
  op: "Const"
  attr {
    key: "dtype"
    value {
      type: DT_FLOAT
    }
  }
  attr {
    key: "value"
    value {
      tensor {
        dtype: DT_FLOAT
        tensor_shape {
          dim {
            size: 256
          }
        }
      }
    }
  }
}
node {
  name: "FeatureExtractor/MobilenetV3/layer_17_2_Conv2d_3_3x3_s2_256/BatchNorm/moving_mean/read"
  op: "Identity"
  input: "FeatureExtractor/MobilenetV3/layer_17_2_Conv2d_3_3x3_s2_256/BatchNorm/moving_mean"
  attr {
    key: "T"
    value {
      type: DT_FLOAT
    }
  }
  attr {
    key: "_class"
    value {
      list {
        s: "loc:@FeatureExtractor/MobilenetV3/layer_17_2_Conv2d_3_3x3_s2_256/BatchNorm/moving_mean"
      }
    }
  }
}
node {
  name: "FeatureExtractor/MobilenetV3/layer_17_2_Conv2d_3_3x3_s2_256/BatchNorm/gamma"
  op: "Const"
  attr {
    key: "dtype"
    value {
      type: DT_FLOAT
    }
  }
  attr {
    key: "value"
    value {
      tensor {
        dtype: DT_FLOAT
        tensor_shape {
          dim {
            size: 256
          }
        }
      }
    }
  }
}
node {
  name: "FeatureExtractor/MobilenetV3/layer_17_2_Conv2d_3_3x3_s2_256/BatchNorm/gamma/read"
  op: "Identity"
  input: "FeatureExtractor/MobilenetV3/layer_17_2_Conv2d_3_3x3_s2_256/BatchNorm/gamma"
  attr {
    key: "T"
    value {
      type: DT_FLOAT
    }
  }
  attr {
    key: "_class"
    value {
      list {
        s: "loc:@FeatureExtractor/MobilenetV3/layer_17_2_Conv2d_3_3x3_s2_256/BatchNorm/gamma"
      }
    }
  }
}
node {
  name: "FeatureExtractor/MobilenetV3/layer_17_2_Conv2d_3_3x3_s2_256/BatchNorm/beta"
  op: "Const"
  attr {
    key: "dtype"
    value {
      type: DT_FLOAT
    }
  }
  attr {
    key: "value"
    value {
      tensor {
        dtype: DT_FLOAT
        tensor_shape {
          dim {
            size: 256
          }
        }
      }
    }
  }
}
node {
  name: "FeatureExtractor/MobilenetV3/layer_17_2_Conv2d_3_3x3_s2_256/BatchNorm/beta/read"
  op: "Identity"
  input: "FeatureExtractor/MobilenetV3/layer_17_2_Conv2d_3_3x3_s2_256/BatchNorm/beta"
  attr {
    key: "T"
    value {
      type: DT_FLOAT
    }
  }
  attr {
    key: "_class"
    value {
      list {
        s: "loc:@FeatureExtractor/MobilenetV3/layer_17_2_Conv2d_3_3x3_s2_256/BatchNorm/beta"
      }
    }
  }
}
node {
  name: "FeatureExtractor/MobilenetV3/layer_17_2_Conv2d_3_3x3_s2_256/weights"
  op: "Const"
  attr {
    key: "dtype"
    value {
      type: DT_FLOAT
    }
  }
  attr {
    key: "value"
    value {
      tensor {
        dtype: DT_FLOAT
        tensor_shape {
          dim {
            size: 1
          }
          dim {
            size: 1
          }
          dim {
            size: 128
          }
          dim {
            size: 256
          }
        }
      }
    }
  }
}
node {
  name: "FeatureExtractor/MobilenetV3/layer_17_2_Conv2d_3_3x3_s2_256/weights/read"
  op: "Identity"
  input: "FeatureExtractor/MobilenetV3/layer_17_2_Conv2d_3_3x3_s2_256/weights"
  attr {
    key: "T"
    value {
      type: DT_FLOAT
    }
  }
  attr {
    key: "_class"
    value {
      list {
        s: "loc:@FeatureExtractor/MobilenetV3/layer_17_2_Conv2d_3_3x3_s2_256/weights"
      }
    }
  }
}
node {
  name: "FeatureExtractor/MobilenetV3/layer_17_2_Conv2d_3_3x3_s2_256_depthwise/BatchNorm/moving_variance"
  op: "Const"
  attr {
    key: "dtype"
    value {
      type: DT_FLOAT
    }
  }
  attr {
    key: "value"
    value {
      tensor {
        dtype: DT_FLOAT
        tensor_shape {
          dim {
            size: 128
          }
        }
      }
    }
  }
}
node {
  name: "FeatureExtractor/MobilenetV3/layer_17_2_Conv2d_3_3x3_s2_256_depthwise/BatchNorm/moving_variance/read"
  op: "Identity"
  input: "FeatureExtractor/MobilenetV3/layer_17_2_Conv2d_3_3x3_s2_256_depthwise/BatchNorm/moving_variance"
  attr {
    key: "T"
    value {
      type: DT_FLOAT
    }
  }
  attr {
    key: "_class"
    value {
      list {
        s: "loc:@FeatureExtractor/MobilenetV3/layer_17_2_Conv2d_3_3x3_s2_256_depthwise/BatchNorm/moving_variance"
      }
    }
  }
}
node {
  name: "FeatureExtractor/MobilenetV3/layer_17_2_Conv2d_3_3x3_s2_256_depthwise/BatchNorm/moving_mean"
  op: "Const"
  attr {
    key: "dtype"
    value {
      type: DT_FLOAT
    }
  }
  attr {
    key: "value"
    value {
      tensor {
        dtype: DT_FLOAT
        tensor_shape {
          dim {
            size: 128
          }
        }
      }
    }
  }
}
node {
  name: "FeatureExtractor/MobilenetV3/layer_17_2_Conv2d_3_3x3_s2_256_depthwise/BatchNorm/moving_mean/read"
  op: "Identity"
  input: "FeatureExtractor/MobilenetV3/layer_17_2_Conv2d_3_3x3_s2_256_depthwise/BatchNorm/moving_mean"
  attr {
    key: "T"
    value {
      type: DT_FLOAT
    }
  }
  attr {
    key: "_class"
    value {
      list {
        s: "loc:@FeatureExtractor/MobilenetV3/layer_17_2_Conv2d_3_3x3_s2_256_depthwise/BatchNorm/moving_mean"
      }
    }
  }
}
node {
  name: "FeatureExtractor/MobilenetV3/layer_17_2_Conv2d_3_3x3_s2_256_depthwise/BatchNorm/gamma"
  op: "Const"
  attr {
    key: "dtype"
    value {
      type: DT_FLOAT
    }
  }
  attr {
    key: "value"
    value {
      tensor {
        dtype: DT_FLOAT
        tensor_shape {
          dim {
            size: 128
          }
        }
      }
    }
  }
}
node {
  name: "FeatureExtractor/MobilenetV3/layer_17_2_Conv2d_3_3x3_s2_256_depthwise/BatchNorm/gamma/read"
  op: "Identity"
  input: "FeatureExtractor/MobilenetV3/layer_17_2_Conv2d_3_3x3_s2_256_depthwise/BatchNorm/gamma"
  attr {
    key: "T"
    value {
      type: DT_FLOAT
    }
  }
  attr {
    key: "_class"
    value {
      list {
        s: "loc:@FeatureExtractor/MobilenetV3/layer_17_2_Conv2d_3_3x3_s2_256_depthwise/BatchNorm/gamma"
      }
    }
  }
}
node {
  name: "FeatureExtractor/MobilenetV3/layer_17_2_Conv2d_3_3x3_s2_256_depthwise/BatchNorm/beta"
  op: "Const"
  attr {
    key: "dtype"
    value {
      type: DT_FLOAT
    }
  }
  attr {
    key: "value"
    value {
      tensor {
        dtype: DT_FLOAT
        tensor_shape {
          dim {
            size: 128
          }
        }
      }
    }
  }
}
node {
  name: "FeatureExtractor/MobilenetV3/layer_17_2_Conv2d_3_3x3_s2_256_depthwise/BatchNorm/beta/read"
  op: "Identity"
  input: "FeatureExtractor/MobilenetV3/layer_17_2_Conv2d_3_3x3_s2_256_depthwise/BatchNorm/beta"
  attr {
    key: "T"
    value {
      type: DT_FLOAT
    }
  }
  attr {
    key: "_class"
    value {
      list {
        s: "loc:@FeatureExtractor/MobilenetV3/layer_17_2_Conv2d_3_3x3_s2_256_depthwise/BatchNorm/beta"
      }
    }
  }
}
node {
  name: "FeatureExtractor/MobilenetV3/layer_17_2_Conv2d_3_3x3_s2_256_depthwise/depthwise_weights"
  op: "Const"
  attr {
    key: "dtype"
    value {
      type: DT_FLOAT
    }
  }
  attr {
    key: "value"
    value {
      tensor {
        dtype: DT_FLOAT
        tensor_shape {
          dim {
            size: 3
          }
          dim {
            size: 3
          }
          dim {
            size: 128
          }
          dim {
            size: 1
          }
        }
      }
    }
  }
}
node {
  name: "FeatureExtractor/MobilenetV3/layer_17_2_Conv2d_3_3x3_s2_256_depthwise/depthwise_weights/read"
  op: "Identity"
  input: "FeatureExtractor/MobilenetV3/layer_17_2_Conv2d_3_3x3_s2_256_depthwise/depthwise_weights"
  attr {
    key: "T"
    value {
      type: DT_FLOAT
    }
  }
  attr {
    key: "_class"
    value {
      list {
        s: "loc:@FeatureExtractor/MobilenetV3/layer_17_2_Conv2d_3_3x3_s2_256_depthwise/depthwise_weights"
      }
    }
  }
}
node {
  name: "FeatureExtractor/MobilenetV3/layer_17_1_Conv2d_3_1x1_128/BatchNorm/moving_variance"
  op: "Const"
  attr {
    key: "dtype"
    value {
      type: DT_FLOAT
    }
  }
  attr {
    key: "value"
    value {
      tensor {
        dtype: DT_FLOAT
        tensor_shape {
          dim {
            size: 128
          }
        }
      }
    }
  }
}
node {
  name: "FeatureExtractor/MobilenetV3/layer_17_1_Conv2d_3_1x1_128/BatchNorm/moving_variance/read"
  op: "Identity"
  input: "FeatureExtractor/MobilenetV3/layer_17_1_Conv2d_3_1x1_128/BatchNorm/moving_variance"
  attr {
    key: "T"
    value {
      type: DT_FLOAT
    }
  }
  attr {
    key: "_class"
    value {
      list {
        s: "loc:@FeatureExtractor/MobilenetV3/layer_17_1_Conv2d_3_1x1_128/BatchNorm/moving_variance"
      }
    }
  }
}
node {
  name: "FeatureExtractor/MobilenetV3/layer_17_1_Conv2d_3_1x1_128/BatchNorm/moving_mean"
  op: "Const"
  attr {
    key: "dtype"
    value {
      type: DT_FLOAT
    }
  }
  attr {
    key: "value"
    value {
      tensor {
        dtype: DT_FLOAT
        tensor_shape {
          dim {
            size: 128
          }
        }
      }
    }
  }
}
node {
  name: "FeatureExtractor/MobilenetV3/layer_17_1_Conv2d_3_1x1_128/BatchNorm/moving_mean/read"
  op: "Identity"
  input: "FeatureExtractor/MobilenetV3/layer_17_1_Conv2d_3_1x1_128/BatchNorm/moving_mean"
  attr {
    key: "T"
    value {
      type: DT_FLOAT
    }
  }
  attr {
    key: "_class"
    value {
      list {
        s: "loc:@FeatureExtractor/MobilenetV3/layer_17_1_Conv2d_3_1x1_128/BatchNorm/moving_mean"
      }
    }
  }
}
node {
  name: "FeatureExtractor/MobilenetV3/layer_17_1_Conv2d_3_1x1_128/BatchNorm/gamma"
  op: "Const"
  attr {
    key: "dtype"
    value {
      type: DT_FLOAT
    }
  }
  attr {
    key: "value"
    value {
      tensor {
        dtype: DT_FLOAT
        tensor_shape {
          dim {
            size: 128
          }
        }
      }
    }
  }
}
node {
  name: "FeatureExtractor/MobilenetV3/layer_17_1_Conv2d_3_1x1_128/BatchNorm/gamma/read"
  op: "Identity"
  input: "FeatureExtractor/MobilenetV3/layer_17_1_Conv2d_3_1x1_128/BatchNorm/gamma"
  attr {
    key: "T"
    value {
      type: DT_FLOAT
    }
  }
  attr {
    key: "_class"
    value {
      list {
        s: "loc:@FeatureExtractor/MobilenetV3/layer_17_1_Conv2d_3_1x1_128/BatchNorm/gamma"
      }
    }
  }
}
node {
  name: "FeatureExtractor/MobilenetV3/layer_17_1_Conv2d_3_1x1_128/BatchNorm/beta"
  op: "Const"
  attr {
    key: "dtype"
    value {
      type: DT_FLOAT
    }
  }
  attr {
    key: "value"
    value {
      tensor {
        dtype: DT_FLOAT
        tensor_shape {
          dim {
            size: 128
          }
        }
      }
    }
  }
}
node {
  name: "FeatureExtractor/MobilenetV3/layer_17_1_Conv2d_3_1x1_128/BatchNorm/beta/read"
  op: "Identity"
  input: "FeatureExtractor/MobilenetV3/layer_17_1_Conv2d_3_1x1_128/BatchNorm/beta"
  attr {
    key: "T"
    value {
      type: DT_FLOAT
    }
  }
  attr {
    key: "_class"
    value {
      list {
        s: "loc:@FeatureExtractor/MobilenetV3/layer_17_1_Conv2d_3_1x1_128/BatchNorm/beta"
      }
    }
  }
}
node {
  name: "FeatureExtractor/MobilenetV3/layer_17_1_Conv2d_3_1x1_128/weights"
  op: "Const"
  attr {
    key: "dtype"
    value {
      type: DT_FLOAT
    }
  }
  attr {
    key: "value"
    value {
      tensor {
        dtype: DT_FLOAT
        tensor_shape {
          dim {
            size: 1
          }
          dim {
            size: 1
          }
          dim {
            size: 512
          }
          dim {
            size: 128
          }
        }
      }
    }
  }
}
node {
  name: "FeatureExtractor/MobilenetV3/layer_17_1_Conv2d_3_1x1_128/weights/read"
  op: "Identity"
  input: "FeatureExtractor/MobilenetV3/layer_17_1_Conv2d_3_1x1_128/weights"
  attr {
    key: "T"
    value {
      type: DT_FLOAT
    }
  }
  attr {
    key: "_class"
    value {
      list {
        s: "loc:@FeatureExtractor/MobilenetV3/layer_17_1_Conv2d_3_1x1_128/weights"
      }
    }
  }
}
node {
  name: "FeatureExtractor/MobilenetV3/layer_17_2_Conv2d_2_3x3_s2_512/BatchNorm/moving_variance"
  op: "Const"
  attr {
    key: "dtype"
    value {
      type: DT_FLOAT
    }
  }
  attr {
    key: "value"
    value {
      tensor {
        dtype: DT_FLOAT
        tensor_shape {
          dim {
            size: 512
          }
        }
      }
    }
  }
}
node {
  name: "FeatureExtractor/MobilenetV3/layer_17_2_Conv2d_2_3x3_s2_512/BatchNorm/moving_variance/read"
  op: "Identity"
  input: "FeatureExtractor/MobilenetV3/layer_17_2_Conv2d_2_3x3_s2_512/BatchNorm/moving_variance"
  attr {
    key: "T"
    value {
      type: DT_FLOAT
    }
  }
  attr {
    key: "_class"
    value {
      list {
        s: "loc:@FeatureExtractor/MobilenetV3/layer_17_2_Conv2d_2_3x3_s2_512/BatchNorm/moving_variance"
      }
    }
  }
}
node {
  name: "FeatureExtractor/MobilenetV3/layer_17_2_Conv2d_2_3x3_s2_512/BatchNorm/moving_mean"
  op: "Const"
  attr {
    key: "dtype"
    value {
      type: DT_FLOAT
    }
  }
  attr {
    key: "value"
    value {
      tensor {
        dtype: DT_FLOAT
        tensor_shape {
          dim {
            size: 512
          }
        }
      }
    }
  }
}
node {
  name: "FeatureExtractor/MobilenetV3/layer_17_2_Conv2d_2_3x3_s2_512/BatchNorm/moving_mean/read"
  op: "Identity"
  input: "FeatureExtractor/MobilenetV3/layer_17_2_Conv2d_2_3x3_s2_512/BatchNorm/moving_mean"
  attr {
    key: "T"
    value {
      type: DT_FLOAT
    }
  }
  attr {
    key: "_class"
    value {
      list {
        s: "loc:@FeatureExtractor/MobilenetV3/layer_17_2_Conv2d_2_3x3_s2_512/BatchNorm/moving_mean"
      }
    }
  }
}
node {
  name: "FeatureExtractor/MobilenetV3/layer_17_2_Conv2d_2_3x3_s2_512/BatchNorm/gamma"
  op: "Const"
  attr {
    key: "dtype"
    value {
      type: DT_FLOAT
    }
  }
  attr {
    key: "value"
    value {
      tensor {
        dtype: DT_FLOAT
        tensor_shape {
          dim {
            size: 512
          }
        }
      }
    }
  }
}
node {
  name: "FeatureExtractor/MobilenetV3/layer_17_2_Conv2d_2_3x3_s2_512/BatchNorm/gamma/read"
  op: "Identity"
  input: "FeatureExtractor/MobilenetV3/layer_17_2_Conv2d_2_3x3_s2_512/BatchNorm/gamma"
  attr {
    key: "T"
    value {
      type: DT_FLOAT
    }
  }
  attr {
    key: "_class"
    value {
      list {
        s: "loc:@FeatureExtractor/MobilenetV3/layer_17_2_Conv2d_2_3x3_s2_512/BatchNorm/gamma"
      }
    }
  }
}
node {
  name: "FeatureExtractor/MobilenetV3/layer_17_2_Conv2d_2_3x3_s2_512/BatchNorm/beta"
  op: "Const"
  attr {
    key: "dtype"
    value {
      type: DT_FLOAT
    }
  }
  attr {
    key: "value"
    value {
      tensor {
        dtype: DT_FLOAT
        tensor_shape {
          dim {
            size: 512
          }
        }
      }
    }
  }
}
node {
  name: "FeatureExtractor/MobilenetV3/layer_17_2_Conv2d_2_3x3_s2_512/BatchNorm/beta/read"
  op: "Identity"
  input: "FeatureExtractor/MobilenetV3/layer_17_2_Conv2d_2_3x3_s2_512/BatchNorm/beta"
  attr {
    key: "T"
    value {
      type: DT_FLOAT
    }
  }
  attr {
    key: "_class"
    value {
      list {
        s: "loc:@FeatureExtractor/MobilenetV3/layer_17_2_Conv2d_2_3x3_s2_512/BatchNorm/beta"
      }
    }
  }
}
node {
  name: "FeatureExtractor/MobilenetV3/layer_17_2_Conv2d_2_3x3_s2_512/weights"
  op: "Const"
  attr {
    key: "dtype"
    value {
      type: DT_FLOAT
    }
  }
  attr {
    key: "value"
    value {
      tensor {
        dtype: DT_FLOAT
        tensor_shape {
          dim {
            size: 1
          }
          dim {
            size: 1
          }
          dim {
            size: 256
          }
          dim {
            size: 512
          }
        }
      }
    }
  }
}
node {
  name: "FeatureExtractor/MobilenetV3/layer_17_2_Conv2d_2_3x3_s2_512/weights/read"
  op: "Identity"
  input: "FeatureExtractor/MobilenetV3/layer_17_2_Conv2d_2_3x3_s2_512/weights"
  attr {
    key: "T"
    value {
      type: DT_FLOAT
    }
  }
  attr {
    key: "_class"
    value {
      list {
        s: "loc:@FeatureExtractor/MobilenetV3/layer_17_2_Conv2d_2_3x3_s2_512/weights"
      }
    }
  }
}
node {
  name: "FeatureExtractor/MobilenetV3/layer_17_2_Conv2d_2_3x3_s2_512_depthwise/BatchNorm/moving_variance"
  op: "Const"
  attr {
    key: "dtype"
    value {
      type: DT_FLOAT
    }
  }
  attr {
    key: "value"
    value {
      tensor {
        dtype: DT_FLOAT
        tensor_shape {
          dim {
            size: 256
          }
        }
      }
    }
  }
}
node {
  name: "FeatureExtractor/MobilenetV3/layer_17_2_Conv2d_2_3x3_s2_512_depthwise/BatchNorm/moving_variance/read"
  op: "Identity"
  input: "FeatureExtractor/MobilenetV3/layer_17_2_Conv2d_2_3x3_s2_512_depthwise/BatchNorm/moving_variance"
  attr {
    key: "T"
    value {
      type: DT_FLOAT
    }
  }
  attr {
    key: "_class"
    value {
      list {
        s: "loc:@FeatureExtractor/MobilenetV3/layer_17_2_Conv2d_2_3x3_s2_512_depthwise/BatchNorm/moving_variance"
      }
    }
  }
}
node {
  name: "FeatureExtractor/MobilenetV3/layer_17_2_Conv2d_2_3x3_s2_512_depthwise/BatchNorm/moving_mean"
  op: "Const"
  attr {
    key: "dtype"
    value {
      type: DT_FLOAT
    }
  }
  attr {
    key: "value"
    value {
      tensor {
        dtype: DT_FLOAT
        tensor_shape {
          dim {
            size: 256
          }
        }
      }
    }
  }
}
node {
  name: "FeatureExtractor/MobilenetV3/layer_17_2_Conv2d_2_3x3_s2_512_depthwise/BatchNorm/moving_mean/read"
  op: "Identity"
  input: "FeatureExtractor/MobilenetV3/layer_17_2_Conv2d_2_3x3_s2_512_depthwise/BatchNorm/moving_mean"
  attr {
    key: "T"
    value {
      type: DT_FLOAT
    }
  }
  attr {
    key: "_class"
    value {
      list {
        s: "loc:@FeatureExtractor/MobilenetV3/layer_17_2_Conv2d_2_3x3_s2_512_depthwise/BatchNorm/moving_mean"
      }
    }
  }
}
node {
  name: "FeatureExtractor/MobilenetV3/layer_17_2_Conv2d_2_3x3_s2_512_depthwise/BatchNorm/gamma"
  op: "Const"
  attr {
    key: "dtype"
    value {
      type: DT_FLOAT
    }
  }
  attr {
    key: "value"
    value {
      tensor {
        dtype: DT_FLOAT
        tensor_shape {
          dim {
            size: 256
          }
        }
      }
    }
  }
}
node {
  name: "FeatureExtractor/MobilenetV3/layer_17_2_Conv2d_2_3x3_s2_512_depthwise/BatchNorm/gamma/read"
  op: "Identity"
  input: "FeatureExtractor/MobilenetV3/layer_17_2_Conv2d_2_3x3_s2_512_depthwise/BatchNorm/gamma"
  attr {
    key: "T"
    value {
      type: DT_FLOAT
    }
  }
  attr {
    key: "_class"
    value {
      list {
        s: "loc:@FeatureExtractor/MobilenetV3/layer_17_2_Conv2d_2_3x3_s2_512_depthwise/BatchNorm/gamma"
      }
    }
  }
}
node {
  name: "FeatureExtractor/MobilenetV3/layer_17_2_Conv2d_2_3x3_s2_512_depthwise/BatchNorm/beta"
  op: "Const"
  attr {
    key: "dtype"
    value {
      type: DT_FLOAT
    }
  }
  attr {
    key: "value"
    value {
      tensor {
        dtype: DT_FLOAT
        tensor_shape {
          dim {
            size: 256
          }
        }
      }
    }
  }
}
node {
  name: "FeatureExtractor/MobilenetV3/layer_17_2_Conv2d_2_3x3_s2_512_depthwise/BatchNorm/beta/read"
  op: "Identity"
  input: "FeatureExtractor/MobilenetV3/layer_17_2_Conv2d_2_3x3_s2_512_depthwise/BatchNorm/beta"
  attr {
    key: "T"
    value {
      type: DT_FLOAT
    }
  }
  attr {
    key: "_class"
    value {
      list {
        s: "loc:@FeatureExtractor/MobilenetV3/layer_17_2_Conv2d_2_3x3_s2_512_depthwise/BatchNorm/beta"
      }
    }
  }
}
node {
  name: "FeatureExtractor/MobilenetV3/layer_17_2_Conv2d_2_3x3_s2_512_depthwise/depthwise_weights"
  op: "Const"
  attr {
    key: "dtype"
    value {
      type: DT_FLOAT
    }
  }
  attr {
    key: "value"
    value {
      tensor {
        dtype: DT_FLOAT
        tensor_shape {
          dim {
            size: 3
          }
          dim {
            size: 3
          }
          dim {
            size: 256
          }
          dim {
            size: 1
          }
        }
      }
    }
  }
}
node {
  name: "FeatureExtractor/MobilenetV3/layer_17_2_Conv2d_2_3x3_s2_512_depthwise/depthwise_weights/read"
  op: "Identity"
  input: "FeatureExtractor/MobilenetV3/layer_17_2_Conv2d_2_3x3_s2_512_depthwise/depthwise_weights"
  attr {
    key: "T"
    value {
      type: DT_FLOAT
    }
  }
  attr {
    key: "_class"
    value {
      list {
        s: "loc:@FeatureExtractor/MobilenetV3/layer_17_2_Conv2d_2_3x3_s2_512_depthwise/depthwise_weights"
      }
    }
  }
}
node {
  name: "FeatureExtractor/MobilenetV3/layer_17_1_Conv2d_2_1x1_256/BatchNorm/moving_variance"
  op: "Const"
  attr {
    key: "dtype"
    value {
      type: DT_FLOAT
    }
  }
  attr {
    key: "value"
    value {
      tensor {
        dtype: DT_FLOAT
        tensor_shape {
          dim {
            size: 256
          }
        }
      }
    }
  }
}
node {
  name: "FeatureExtractor/MobilenetV3/layer_17_1_Conv2d_2_1x1_256/BatchNorm/moving_variance/read"
  op: "Identity"
  input: "FeatureExtractor/MobilenetV3/layer_17_1_Conv2d_2_1x1_256/BatchNorm/moving_variance"
  attr {
    key: "T"
    value {
      type: DT_FLOAT
    }
  }
  attr {
    key: "_class"
    value {
      list {
        s: "loc:@FeatureExtractor/MobilenetV3/layer_17_1_Conv2d_2_1x1_256/BatchNorm/moving_variance"
      }
    }
  }
}
node {
  name: "FeatureExtractor/MobilenetV3/layer_17_1_Conv2d_2_1x1_256/BatchNorm/moving_mean"
  op: "Const"
  attr {
    key: "dtype"
    value {
      type: DT_FLOAT
    }
  }
  attr {
    key: "value"
    value {
      tensor {
        dtype: DT_FLOAT
        tensor_shape {
          dim {
            size: 256
          }
        }
      }
    }
  }
}
node {
  name: "FeatureExtractor/MobilenetV3/layer_17_1_Conv2d_2_1x1_256/BatchNorm/moving_mean/read"
  op: "Identity"
  input: "FeatureExtractor/MobilenetV3/layer_17_1_Conv2d_2_1x1_256/BatchNorm/moving_mean"
  attr {
    key: "T"
    value {
      type: DT_FLOAT
    }
  }
  attr {
    key: "_class"
    value {
      list {
        s: "loc:@FeatureExtractor/MobilenetV3/layer_17_1_Conv2d_2_1x1_256/BatchNorm/moving_mean"
      }
    }
  }
}
node {
  name: "FeatureExtractor/MobilenetV3/layer_17_1_Conv2d_2_1x1_256/BatchNorm/gamma"
  op: "Const"
  attr {
    key: "dtype"
    value {
      type: DT_FLOAT
    }
  }
  attr {
    key: "value"
    value {
      tensor {
        dtype: DT_FLOAT
        tensor_shape {
          dim {
            size: 256
          }
        }
      }
    }
  }
}
node {
  name: "FeatureExtractor/MobilenetV3/layer_17_1_Conv2d_2_1x1_256/BatchNorm/gamma/read"
  op: "Identity"
  input: "FeatureExtractor/MobilenetV3/layer_17_1_Conv2d_2_1x1_256/BatchNorm/gamma"
  attr {
    key: "T"
    value {
      type: DT_FLOAT
    }
  }
  attr {
    key: "_class"
    value {
      list {
        s: "loc:@FeatureExtractor/MobilenetV3/layer_17_1_Conv2d_2_1x1_256/BatchNorm/gamma"
      }
    }
  }
}
node {
  name: "FeatureExtractor/MobilenetV3/layer_17_1_Conv2d_2_1x1_256/BatchNorm/beta"
  op: "Const"
  attr {
    key: "dtype"
    value {
      type: DT_FLOAT
    }
  }
  attr {
    key: "value"
    value {
      tensor {
        dtype: DT_FLOAT
        tensor_shape {
          dim {
            size: 256
          }
        }
      }
    }
  }
}
node {
  name: "FeatureExtractor/MobilenetV3/layer_17_1_Conv2d_2_1x1_256/BatchNorm/beta/read"
  op: "Identity"
  input: "FeatureExtractor/MobilenetV3/layer_17_1_Conv2d_2_1x1_256/BatchNorm/beta"
  attr {
    key: "T"
    value {
      type: DT_FLOAT
    }
  }
  attr {
    key: "_class"
    value {
      list {
        s: "loc:@FeatureExtractor/MobilenetV3/layer_17_1_Conv2d_2_1x1_256/BatchNorm/beta"
      }
    }
  }
}
node {
  name: "FeatureExtractor/MobilenetV3/layer_17_1_Conv2d_2_1x1_256/weights"
  op: "Const"
  attr {
    key: "dtype"
    value {
      type: DT_FLOAT
    }
  }
  attr {
    key: "value"
    value {
      tensor {
        dtype: DT_FLOAT
        tensor_shape {
          dim {
            size: 1
          }
          dim {
            size: 1
          }
          dim {
            size: 480
          }
          dim {
            size: 256
          }
        }
      }
    }
  }
}
node {
  name: "FeatureExtractor/MobilenetV3/layer_17_1_Conv2d_2_1x1_256/weights/read"
  op: "Identity"
  input: "FeatureExtractor/MobilenetV3/layer_17_1_Conv2d_2_1x1_256/weights"
  attr {
    key: "T"
    value {
      type: DT_FLOAT
    }
  }
  attr {
    key: "_class"
    value {
      list {
        s: "loc:@FeatureExtractor/MobilenetV3/layer_17_1_Conv2d_2_1x1_256/weights"
      }
    }
  }
}
node {
  name: "FeatureExtractor/MobilenetV3/Conv_1/hard_swish/mul_1/y"
  op: "Const"
  attr {
    key: "dtype"
    value {
      type: DT_FLOAT
    }
  }
  attr {
    key: "value"
    value {
      tensor {
        dtype: DT_FLOAT
        tensor_shape {
        }
        float_val: 0.166666672
      }
    }
  }
}
node {
  name: "FeatureExtractor/MobilenetV3/Conv_1/hard_swish/add/y"
  op: "Const"
  attr {
    key: "dtype"
    value {
      type: DT_FLOAT
    }
  }
  attr {
    key: "value"
    value {
      tensor {
        dtype: DT_FLOAT
        tensor_shape {
        }
        float_val: 3
      }
    }
  }
}
node {
  name: "FeatureExtractor/MobilenetV3/Conv_1/BatchNorm/moving_variance"
  op: "Const"
  attr {
    key: "dtype"
    value {
      type: DT_FLOAT
    }
  }
  attr {
    key: "value"
    value {
      tensor {
        dtype: DT_FLOAT
        tensor_shape {
          dim {
            size: 480
          }
        }
      }
    }
  }
}
node {
  name: "FeatureExtractor/MobilenetV3/Conv_1/BatchNorm/moving_variance/read"
  op: "Identity"
  input: "FeatureExtractor/MobilenetV3/Conv_1/BatchNorm/moving_variance"
  attr {
    key: "T"
    value {
      type: DT_FLOAT
    }
  }
  attr {
    key: "_class"
    value {
      list {
        s: "loc:@FeatureExtractor/MobilenetV3/Conv_1/BatchNorm/moving_variance"
      }
    }
  }
}
node {
  name: "FeatureExtractor/MobilenetV3/Conv_1/BatchNorm/moving_mean"
  op: "Const"
  attr {
    key: "dtype"
    value {
      type: DT_FLOAT
    }
  }
  attr {
    key: "value"
    value {
      tensor {
        dtype: DT_FLOAT
        tensor_shape {
          dim {
            size: 480
          }
        }
      }
    }
  }
}
node {
  name: "FeatureExtractor/MobilenetV3/Conv_1/BatchNorm/moving_mean/read"
  op: "Identity"
  input: "FeatureExtractor/MobilenetV3/Conv_1/BatchNorm/moving_mean"
  attr {
    key: "T"
    value {
      type: DT_FLOAT
    }
  }
  attr {
    key: "_class"
    value {
      list {
        s: "loc:@FeatureExtractor/MobilenetV3/Conv_1/BatchNorm/moving_mean"
      }
    }
  }
}
node {
  name: "FeatureExtractor/MobilenetV3/Conv_1/BatchNorm/gamma"
  op: "Const"
  attr {
    key: "dtype"
    value {
      type: DT_FLOAT
    }
  }
  attr {
    key: "value"
    value {
      tensor {
        dtype: DT_FLOAT
        tensor_shape {
          dim {
            size: 480
          }
        }
      }
    }
  }
}
node {
  name: "FeatureExtractor/MobilenetV3/Conv_1/BatchNorm/gamma/read"
  op: "Identity"
  input: "FeatureExtractor/MobilenetV3/Conv_1/BatchNorm/gamma"
  attr {
    key: "T"
    value {
      type: DT_FLOAT
    }
  }
  attr {
    key: "_class"
    value {
      list {
        s: "loc:@FeatureExtractor/MobilenetV3/Conv_1/BatchNorm/gamma"
      }
    }
  }
}
node {
  name: "FeatureExtractor/MobilenetV3/Conv_1/BatchNorm/beta"
  op: "Const"
  attr {
    key: "dtype"
    value {
      type: DT_FLOAT
    }
  }
  attr {
    key: "value"
    value {
      tensor {
        dtype: DT_FLOAT
        tensor_shape {
          dim {
            size: 480
          }
        }
      }
    }
  }
}
node {
  name: "FeatureExtractor/MobilenetV3/Conv_1/BatchNorm/beta/read"
  op: "Identity"
  input: "FeatureExtractor/MobilenetV3/Conv_1/BatchNorm/beta"
  attr {
    key: "T"
    value {
      type: DT_FLOAT
    }
  }
  attr {
    key: "_class"
    value {
      list {
        s: "loc:@FeatureExtractor/MobilenetV3/Conv_1/BatchNorm/beta"
      }
    }
  }
}
node {
  name: "FeatureExtractor/MobilenetV3/Conv_1/weights"
  op: "Const"
  attr {
    key: "dtype"
    value {
      type: DT_FLOAT
    }
  }
  attr {
    key: "value"
    value {
      tensor {
        dtype: DT_FLOAT
        tensor_shape {
          dim {
            size: 1
          }
          dim {
            size: 1
          }
          dim {
            size: 80
          }
          dim {
            size: 480
          }
        }
      }
    }
  }
}
node {
  name: "FeatureExtractor/MobilenetV3/Conv_1/weights/read"
  op: "Identity"
  input: "FeatureExtractor/MobilenetV3/Conv_1/weights"
  attr {
    key: "T"
    value {
      type: DT_FLOAT
    }
  }
  attr {
    key: "_class"
    value {
      list {
        s: "loc:@FeatureExtractor/MobilenetV3/Conv_1/weights"
      }
    }
  }
}
node {
  name: "FeatureExtractor/MobilenetV3/expanded_conv_14/project/BatchNorm/moving_variance"
  op: "Const"
  attr {
    key: "dtype"
    value {
      type: DT_FLOAT
    }
  }
  attr {
    key: "value"
    value {
      tensor {
        dtype: DT_FLOAT
        tensor_shape {
          dim {
            size: 80
          }
        }
      }
    }
  }
}
node {
  name: "FeatureExtractor/MobilenetV3/expanded_conv_14/project/BatchNorm/moving_variance/read"
  op: "Identity"
  input: "FeatureExtractor/MobilenetV3/expanded_conv_14/project/BatchNorm/moving_variance"
  attr {
    key: "T"
    value {
      type: DT_FLOAT
    }
  }
  attr {
    key: "_class"
    value {
      list {
        s: "loc:@FeatureExtractor/MobilenetV3/expanded_conv_14/project/BatchNorm/moving_variance"
      }
    }
  }
}
node {
  name: "FeatureExtractor/MobilenetV3/expanded_conv_14/project/BatchNorm/moving_mean"
  op: "Const"
  attr {
    key: "dtype"
    value {
      type: DT_FLOAT
    }
  }
  attr {
    key: "value"
    value {
      tensor {
        dtype: DT_FLOAT
        tensor_shape {
          dim {
            size: 80
          }
        }
      }
    }
  }
}
node {
  name: "FeatureExtractor/MobilenetV3/expanded_conv_14/project/BatchNorm/moving_mean/read"
  op: "Identity"
  input: "FeatureExtractor/MobilenetV3/expanded_conv_14/project/BatchNorm/moving_mean"
  attr {
    key: "T"
    value {
      type: DT_FLOAT
    }
  }
  attr {
    key: "_class"
    value {
      list {
        s: "loc:@FeatureExtractor/MobilenetV3/expanded_conv_14/project/BatchNorm/moving_mean"
      }
    }
  }
}
node {
  name: "FeatureExtractor/MobilenetV3/expanded_conv_14/project/BatchNorm/gamma"
  op: "Const"
  attr {
    key: "dtype"
    value {
      type: DT_FLOAT
    }
  }
  attr {
    key: "value"
    value {
      tensor {
        dtype: DT_FLOAT
        tensor_shape {
          dim {
            size: 80
          }
        }
      }
    }
  }
}
node {
  name: "FeatureExtractor/MobilenetV3/expanded_conv_14/project/BatchNorm/gamma/read"
  op: "Identity"
  input: "FeatureExtractor/MobilenetV3/expanded_conv_14/project/BatchNorm/gamma"
  attr {
    key: "T"
    value {
      type: DT_FLOAT
    }
  }
  attr {
    key: "_class"
    value {
      list {
        s: "loc:@FeatureExtractor/MobilenetV3/expanded_conv_14/project/BatchNorm/gamma"
      }
    }
  }
}
node {
  name: "FeatureExtractor/MobilenetV3/expanded_conv_14/project/BatchNorm/beta"
  op: "Const"
  attr {
    key: "dtype"
    value {
      type: DT_FLOAT
    }
  }
  attr {
    key: "value"
    value {
      tensor {
        dtype: DT_FLOAT
        tensor_shape {
          dim {
            size: 80
          }
        }
      }
    }
  }
}
node {
  name: "FeatureExtractor/MobilenetV3/expanded_conv_14/project/BatchNorm/beta/read"
  op: "Identity"
  input: "FeatureExtractor/MobilenetV3/expanded_conv_14/project/BatchNorm/beta"
  attr {
    key: "T"
    value {
      type: DT_FLOAT
    }
  }
  attr {
    key: "_class"
    value {
      list {
        s: "loc:@FeatureExtractor/MobilenetV3/expanded_conv_14/project/BatchNorm/beta"
      }
    }
  }
}
node {
  name: "FeatureExtractor/MobilenetV3/expanded_conv_14/project/weights"
  op: "Const"
  attr {
    key: "dtype"
    value {
      type: DT_FLOAT
    }
  }
  attr {
    key: "value"
    value {
      tensor {
        dtype: DT_FLOAT
        tensor_shape {
          dim {
            size: 1
          }
          dim {
            size: 1
          }
          dim {
            size: 480
          }
          dim {
            size: 80
          }
        }
      }
    }
  }
}
node {
  name: "FeatureExtractor/MobilenetV3/expanded_conv_14/project/weights/read"
  op: "Identity"
  input: "FeatureExtractor/MobilenetV3/expanded_conv_14/project/weights"
  attr {
    key: "T"
    value {
      type: DT_FLOAT
    }
  }
  attr {
    key: "_class"
    value {
      list {
        s: "loc:@FeatureExtractor/MobilenetV3/expanded_conv_14/project/weights"
      }
    }
  }
}
node {
  name: "FeatureExtractor/MobilenetV3/expanded_conv_14/squeeze_excite/Conv_1/mul/y"
  op: "Const"
  attr {
    key: "dtype"
    value {
      type: DT_FLOAT
    }
  }
  attr {
    key: "value"
    value {
      tensor {
        dtype: DT_FLOAT
        tensor_shape {
        }
        float_val: 0.16667
      }
    }
  }
}
node {
  name: "FeatureExtractor/MobilenetV3/expanded_conv_14/squeeze_excite/Conv_1/add/y"
  op: "Const"
  attr {
    key: "dtype"
    value {
      type: DT_FLOAT
    }
  }
  attr {
    key: "value"
    value {
      tensor {
        dtype: DT_FLOAT
        tensor_shape {
        }
        float_val: 3
      }
    }
  }
}
node {
  name: "FeatureExtractor/MobilenetV3/expanded_conv_14/squeeze_excite/Conv_1/biases"
  op: "Const"
  attr {
    key: "dtype"
    value {
      type: DT_FLOAT
    }
  }
  attr {
    key: "value"
    value {
      tensor {
        dtype: DT_FLOAT
        tensor_shape {
          dim {
            size: 480
          }
        }
      }
    }
  }
}
node {
  name: "FeatureExtractor/MobilenetV3/expanded_conv_14/squeeze_excite/Conv_1/biases/read"
  op: "Identity"
  input: "FeatureExtractor/MobilenetV3/expanded_conv_14/squeeze_excite/Conv_1/biases"
  attr {
    key: "T"
    value {
      type: DT_FLOAT
    }
  }
  attr {
    key: "_class"
    value {
      list {
        s: "loc:@FeatureExtractor/MobilenetV3/expanded_conv_14/squeeze_excite/Conv_1/biases"
      }
    }
  }
}
node {
  name: "FeatureExtractor/MobilenetV3/expanded_conv_14/squeeze_excite/Conv_1/weights"
  op: "Const"
  attr {
    key: "dtype"
    value {
      type: DT_FLOAT
    }
  }
  attr {
    key: "value"
    value {
      tensor {
        dtype: DT_FLOAT
        tensor_shape {
          dim {
            size: 1
          }
          dim {
            size: 1
          }
          dim {
            size: 120
          }
          dim {
            size: 480
          }
        }
      }
    }
  }
}
node {
  name: "FeatureExtractor/MobilenetV3/expanded_conv_14/squeeze_excite/Conv_1/weights/read"
  op: "Identity"
  input: "FeatureExtractor/MobilenetV3/expanded_conv_14/squeeze_excite/Conv_1/weights"
  attr {
    key: "T"
    value {
      type: DT_FLOAT
    }
  }
  attr {
    key: "_class"
    value {
      list {
        s: "loc:@FeatureExtractor/MobilenetV3/expanded_conv_14/squeeze_excite/Conv_1/weights"
      }
    }
  }
}
node {
  name: "FeatureExtractor/MobilenetV3/expanded_conv_14/squeeze_excite/Conv/biases"
  op: "Const"
  attr {
    key: "dtype"
    value {
      type: DT_FLOAT
    }
  }
  attr {
    key: "value"
    value {
      tensor {
        dtype: DT_FLOAT
        tensor_shape {
          dim {
            size: 120
          }
        }
      }
    }
  }
}
node {
  name: "FeatureExtractor/MobilenetV3/expanded_conv_14/squeeze_excite/Conv/biases/read"
  op: "Identity"
  input: "FeatureExtractor/MobilenetV3/expanded_conv_14/squeeze_excite/Conv/biases"
  attr {
    key: "T"
    value {
      type: DT_FLOAT
    }
  }
  attr {
    key: "_class"
    value {
      list {
        s: "loc:@FeatureExtractor/MobilenetV3/expanded_conv_14/squeeze_excite/Conv/biases"
      }
    }
  }
}
node {
  name: "FeatureExtractor/MobilenetV3/expanded_conv_14/squeeze_excite/Conv/weights"
  op: "Const"
  attr {
    key: "dtype"
    value {
      type: DT_FLOAT
    }
  }
  attr {
    key: "value"
    value {
      tensor {
        dtype: DT_FLOAT
        tensor_shape {
          dim {
            size: 1
          }
          dim {
            size: 1
          }
          dim {
            size: 480
          }
          dim {
            size: 120
          }
        }
      }
    }
  }
}
node {
  name: "FeatureExtractor/MobilenetV3/expanded_conv_14/squeeze_excite/Conv/weights/read"
  op: "Identity"
  input: "FeatureExtractor/MobilenetV3/expanded_conv_14/squeeze_excite/Conv/weights"
  attr {
    key: "T"
    value {
      type: DT_FLOAT
    }
  }
  attr {
    key: "_class"
    value {
      list {
        s: "loc:@FeatureExtractor/MobilenetV3/expanded_conv_14/squeeze_excite/Conv/weights"
      }
    }
  }
}
node {
  name: "FeatureExtractor/MobilenetV3/expanded_conv_14/squeeze_excite/Mean/reduction_indices"
  op: "Const"
  attr {
    key: "dtype"
    value {
      type: DT_INT32
    }
  }
  attr {
    key: "value"
    value {
      tensor {
        dtype: DT_INT32
        tensor_shape {
          dim {
            size: 2
          }
        }
      }
    }
  }
}
node {
  name: "FeatureExtractor/MobilenetV3/expanded_conv_14/depthwise/hard_swish/mul_1/y"
  op: "Const"
  attr {
    key: "dtype"
    value {
      type: DT_FLOAT
    }
  }
  attr {
    key: "value"
    value {
      tensor {
        dtype: DT_FLOAT
        tensor_shape {
        }
        float_val: 0.166666672
      }
    }
  }
}
node {
  name: "FeatureExtractor/MobilenetV3/expanded_conv_14/depthwise/hard_swish/add/y"
  op: "Const"
  attr {
    key: "dtype"
    value {
      type: DT_FLOAT
    }
  }
  attr {
    key: "value"
    value {
      tensor {
        dtype: DT_FLOAT
        tensor_shape {
        }
        float_val: 3
      }
    }
  }
}
node {
  name: "FeatureExtractor/MobilenetV3/expanded_conv_14/depthwise/BatchNorm/moving_variance"
  op: "Const"
  attr {
    key: "dtype"
    value {
      type: DT_FLOAT
    }
  }
  attr {
    key: "value"
    value {
      tensor {
        dtype: DT_FLOAT
        tensor_shape {
          dim {
            size: 480
          }
        }
      }
    }
  }
}
node {
  name: "FeatureExtractor/MobilenetV3/expanded_conv_14/depthwise/BatchNorm/moving_variance/read"
  op: "Identity"
  input: "FeatureExtractor/MobilenetV3/expanded_conv_14/depthwise/BatchNorm/moving_variance"
  attr {
    key: "T"
    value {
      type: DT_FLOAT
    }
  }
  attr {
    key: "_class"
    value {
      list {
        s: "loc:@FeatureExtractor/MobilenetV3/expanded_conv_14/depthwise/BatchNorm/moving_variance"
      }
    }
  }
}
node {
  name: "FeatureExtractor/MobilenetV3/expanded_conv_14/depthwise/BatchNorm/moving_mean"
  op: "Const"
  attr {
    key: "dtype"
    value {
      type: DT_FLOAT
    }
  }
  attr {
    key: "value"
    value {
      tensor {
        dtype: DT_FLOAT
        tensor_shape {
          dim {
            size: 480
          }
        }
      }
    }
  }
}
node {
  name: "FeatureExtractor/MobilenetV3/expanded_conv_14/depthwise/BatchNorm/moving_mean/read"
  op: "Identity"
  input: "FeatureExtractor/MobilenetV3/expanded_conv_14/depthwise/BatchNorm/moving_mean"
  attr {
    key: "T"
    value {
      type: DT_FLOAT
    }
  }
  attr {
    key: "_class"
    value {
      list {
        s: "loc:@FeatureExtractor/MobilenetV3/expanded_conv_14/depthwise/BatchNorm/moving_mean"
      }
    }
  }
}
node {
  name: "FeatureExtractor/MobilenetV3/expanded_conv_14/depthwise/BatchNorm/gamma"
  op: "Const"
  attr {
    key: "dtype"
    value {
      type: DT_FLOAT
    }
  }
  attr {
    key: "value"
    value {
      tensor {
        dtype: DT_FLOAT
        tensor_shape {
          dim {
            size: 480
          }
        }
      }
    }
  }
}
node {
  name: "FeatureExtractor/MobilenetV3/expanded_conv_14/depthwise/BatchNorm/gamma/read"
  op: "Identity"
  input: "FeatureExtractor/MobilenetV3/expanded_conv_14/depthwise/BatchNorm/gamma"
  attr {
    key: "T"
    value {
      type: DT_FLOAT
    }
  }
  attr {
    key: "_class"
    value {
      list {
        s: "loc:@FeatureExtractor/MobilenetV3/expanded_conv_14/depthwise/BatchNorm/gamma"
      }
    }
  }
}
node {
  name: "FeatureExtractor/MobilenetV3/expanded_conv_14/depthwise/BatchNorm/beta"
  op: "Const"
  attr {
    key: "dtype"
    value {
      type: DT_FLOAT
    }
  }
  attr {
    key: "value"
    value {
      tensor {
        dtype: DT_FLOAT
        tensor_shape {
          dim {
            size: 480
          }
        }
      }
    }
  }
}
node {
  name: "FeatureExtractor/MobilenetV3/expanded_conv_14/depthwise/BatchNorm/beta/read"
  op: "Identity"
  input: "FeatureExtractor/MobilenetV3/expanded_conv_14/depthwise/BatchNorm/beta"
  attr {
    key: "T"
    value {
      type: DT_FLOAT
    }
  }
  attr {
    key: "_class"
    value {
      list {
        s: "loc:@FeatureExtractor/MobilenetV3/expanded_conv_14/depthwise/BatchNorm/beta"
      }
    }
  }
}
node {
  name: "FeatureExtractor/MobilenetV3/expanded_conv_14/depthwise/depthwise_weights"
  op: "Const"
  attr {
    key: "dtype"
    value {
      type: DT_FLOAT
    }
  }
  attr {
    key: "value"
    value {
      tensor {
        dtype: DT_FLOAT
        tensor_shape {
          dim {
            size: 5
          }
          dim {
            size: 5
          }
          dim {
            size: 480
          }
          dim {
            size: 1
          }
        }
      }
    }
  }
}
node {
  name: "FeatureExtractor/MobilenetV3/expanded_conv_14/depthwise/depthwise_weights/read"
  op: "Identity"
  input: "FeatureExtractor/MobilenetV3/expanded_conv_14/depthwise/depthwise_weights"
  attr {
    key: "T"
    value {
      type: DT_FLOAT
    }
  }
  attr {
    key: "_class"
    value {
      list {
        s: "loc:@FeatureExtractor/MobilenetV3/expanded_conv_14/depthwise/depthwise_weights"
      }
    }
  }
}
node {
  name: "FeatureExtractor/MobilenetV3/expanded_conv_14/expand/hard_swish/mul_1/y"
  op: "Const"
  attr {
    key: "dtype"
    value {
      type: DT_FLOAT
    }
  }
  attr {
    key: "value"
    value {
      tensor {
        dtype: DT_FLOAT
        tensor_shape {
        }
        float_val: 0.166666672
      }
    }
  }
}
node {
  name: "FeatureExtractor/MobilenetV3/expanded_conv_14/expand/hard_swish/add/y"
  op: "Const"
  attr {
    key: "dtype"
    value {
      type: DT_FLOAT
    }
  }
  attr {
    key: "value"
    value {
      tensor {
        dtype: DT_FLOAT
        tensor_shape {
        }
        float_val: 3
      }
    }
  }
}
node {
  name: "FeatureExtractor/MobilenetV3/expanded_conv_14/expand/BatchNorm/moving_variance"
  op: "Const"
  attr {
    key: "dtype"
    value {
      type: DT_FLOAT
    }
  }
  attr {
    key: "value"
    value {
      tensor {
        dtype: DT_FLOAT
        tensor_shape {
          dim {
            size: 480
          }
        }
      }
    }
  }
}
node {
  name: "FeatureExtractor/MobilenetV3/expanded_conv_14/expand/BatchNorm/moving_variance/read"
  op: "Identity"
  input: "FeatureExtractor/MobilenetV3/expanded_conv_14/expand/BatchNorm/moving_variance"
  attr {
    key: "T"
    value {
      type: DT_FLOAT
    }
  }
  attr {
    key: "_class"
    value {
      list {
        s: "loc:@FeatureExtractor/MobilenetV3/expanded_conv_14/expand/BatchNorm/moving_variance"
      }
    }
  }
}
node {
  name: "FeatureExtractor/MobilenetV3/expanded_conv_14/expand/BatchNorm/moving_mean"
  op: "Const"
  attr {
    key: "dtype"
    value {
      type: DT_FLOAT
    }
  }
  attr {
    key: "value"
    value {
      tensor {
        dtype: DT_FLOAT
        tensor_shape {
          dim {
            size: 480
          }
        }
      }
    }
  }
}
node {
  name: "FeatureExtractor/MobilenetV3/expanded_conv_14/expand/BatchNorm/moving_mean/read"
  op: "Identity"
  input: "FeatureExtractor/MobilenetV3/expanded_conv_14/expand/BatchNorm/moving_mean"
  attr {
    key: "T"
    value {
      type: DT_FLOAT
    }
  }
  attr {
    key: "_class"
    value {
      list {
        s: "loc:@FeatureExtractor/MobilenetV3/expanded_conv_14/expand/BatchNorm/moving_mean"
      }
    }
  }
}
node {
  name: "FeatureExtractor/MobilenetV3/expanded_conv_14/expand/BatchNorm/gamma"
  op: "Const"
  attr {
    key: "dtype"
    value {
      type: DT_FLOAT
    }
  }
  attr {
    key: "value"
    value {
      tensor {
        dtype: DT_FLOAT
        tensor_shape {
          dim {
            size: 480
          }
        }
      }
    }
  }
}
node {
  name: "FeatureExtractor/MobilenetV3/expanded_conv_14/expand/BatchNorm/gamma/read"
  op: "Identity"
  input: "FeatureExtractor/MobilenetV3/expanded_conv_14/expand/BatchNorm/gamma"
  attr {
    key: "T"
    value {
      type: DT_FLOAT
    }
  }
  attr {
    key: "_class"
    value {
      list {
        s: "loc:@FeatureExtractor/MobilenetV3/expanded_conv_14/expand/BatchNorm/gamma"
      }
    }
  }
}
node {
  name: "FeatureExtractor/MobilenetV3/expanded_conv_14/expand/BatchNorm/beta"
  op: "Const"
  attr {
    key: "dtype"
    value {
      type: DT_FLOAT
    }
  }
  attr {
    key: "value"
    value {
      tensor {
        dtype: DT_FLOAT
        tensor_shape {
          dim {
            size: 480
          }
        }
      }
    }
  }
}
node {
  name: "FeatureExtractor/MobilenetV3/expanded_conv_14/expand/BatchNorm/beta/read"
  op: "Identity"
  input: "FeatureExtractor/MobilenetV3/expanded_conv_14/expand/BatchNorm/beta"
  attr {
    key: "T"
    value {
      type: DT_FLOAT
    }
  }
  attr {
    key: "_class"
    value {
      list {
        s: "loc:@FeatureExtractor/MobilenetV3/expanded_conv_14/expand/BatchNorm/beta"
      }
    }
  }
}
node {
  name: "FeatureExtractor/MobilenetV3/expanded_conv_14/expand/weights"
  op: "Const"
  attr {
    key: "dtype"
    value {
      type: DT_FLOAT
    }
  }
  attr {
    key: "value"
    value {
      tensor {
        dtype: DT_FLOAT
        tensor_shape {
          dim {
            size: 1
          }
          dim {
            size: 1
          }
          dim {
            size: 80
          }
          dim {
            size: 480
          }
        }
      }
    }
  }
}
node {
  name: "FeatureExtractor/MobilenetV3/expanded_conv_14/expand/weights/read"
  op: "Identity"
  input: "FeatureExtractor/MobilenetV3/expanded_conv_14/expand/weights"
  attr {
    key: "T"
    value {
      type: DT_FLOAT
    }
  }
  attr {
    key: "_class"
    value {
      list {
        s: "loc:@FeatureExtractor/MobilenetV3/expanded_conv_14/expand/weights"
      }
    }
  }
}
node {
  name: "FeatureExtractor/MobilenetV3/expanded_conv_13/project/BatchNorm/moving_variance"
  op: "Const"
  attr {
    key: "dtype"
    value {
      type: DT_FLOAT
    }
  }
  attr {
    key: "value"
    value {
      tensor {
        dtype: DT_FLOAT
        tensor_shape {
          dim {
            size: 80
          }
        }
      }
    }
  }
}
node {
  name: "FeatureExtractor/MobilenetV3/expanded_conv_13/project/BatchNorm/moving_variance/read"
  op: "Identity"
  input: "FeatureExtractor/MobilenetV3/expanded_conv_13/project/BatchNorm/moving_variance"
  attr {
    key: "T"
    value {
      type: DT_FLOAT
    }
  }
  attr {
    key: "_class"
    value {
      list {
        s: "loc:@FeatureExtractor/MobilenetV3/expanded_conv_13/project/BatchNorm/moving_variance"
      }
    }
  }
}
node {
  name: "FeatureExtractor/MobilenetV3/expanded_conv_13/project/BatchNorm/moving_mean"
  op: "Const"
  attr {
    key: "dtype"
    value {
      type: DT_FLOAT
    }
  }
  attr {
    key: "value"
    value {
      tensor {
        dtype: DT_FLOAT
        tensor_shape {
          dim {
            size: 80
          }
        }
      }
    }
  }
}
node {
  name: "FeatureExtractor/MobilenetV3/expanded_conv_13/project/BatchNorm/moving_mean/read"
  op: "Identity"
  input: "FeatureExtractor/MobilenetV3/expanded_conv_13/project/BatchNorm/moving_mean"
  attr {
    key: "T"
    value {
      type: DT_FLOAT
    }
  }
  attr {
    key: "_class"
    value {
      list {
        s: "loc:@FeatureExtractor/MobilenetV3/expanded_conv_13/project/BatchNorm/moving_mean"
      }
    }
  }
}
node {
  name: "FeatureExtractor/MobilenetV3/expanded_conv_13/project/BatchNorm/gamma"
  op: "Const"
  attr {
    key: "dtype"
    value {
      type: DT_FLOAT
    }
  }
  attr {
    key: "value"
    value {
      tensor {
        dtype: DT_FLOAT
        tensor_shape {
          dim {
            size: 80
          }
        }
      }
    }
  }
}
node {
  name: "FeatureExtractor/MobilenetV3/expanded_conv_13/project/BatchNorm/gamma/read"
  op: "Identity"
  input: "FeatureExtractor/MobilenetV3/expanded_conv_13/project/BatchNorm/gamma"
  attr {
    key: "T"
    value {
      type: DT_FLOAT
    }
  }
  attr {
    key: "_class"
    value {
      list {
        s: "loc:@FeatureExtractor/MobilenetV3/expanded_conv_13/project/BatchNorm/gamma"
      }
    }
  }
}
node {
  name: "FeatureExtractor/MobilenetV3/expanded_conv_13/project/BatchNorm/beta"
  op: "Const"
  attr {
    key: "dtype"
    value {
      type: DT_FLOAT
    }
  }
  attr {
    key: "value"
    value {
      tensor {
        dtype: DT_FLOAT
        tensor_shape {
          dim {
            size: 80
          }
        }
      }
    }
  }
}
node {
  name: "FeatureExtractor/MobilenetV3/expanded_conv_13/project/BatchNorm/beta/read"
  op: "Identity"
  input: "FeatureExtractor/MobilenetV3/expanded_conv_13/project/BatchNorm/beta"
  attr {
    key: "T"
    value {
      type: DT_FLOAT
    }
  }
  attr {
    key: "_class"
    value {
      list {
        s: "loc:@FeatureExtractor/MobilenetV3/expanded_conv_13/project/BatchNorm/beta"
      }
    }
  }
}
node {
  name: "FeatureExtractor/MobilenetV3/expanded_conv_13/project/weights"
  op: "Const"
  attr {
    key: "dtype"
    value {
      type: DT_FLOAT
    }
  }
  attr {
    key: "value"
    value {
      tensor {
        dtype: DT_FLOAT
        tensor_shape {
          dim {
            size: 1
          }
          dim {
            size: 1
          }
          dim {
            size: 480
          }
          dim {
            size: 80
          }
        }
      }
    }
  }
}
node {
  name: "FeatureExtractor/MobilenetV3/expanded_conv_13/project/weights/read"
  op: "Identity"
  input: "FeatureExtractor/MobilenetV3/expanded_conv_13/project/weights"
  attr {
    key: "T"
    value {
      type: DT_FLOAT
    }
  }
  attr {
    key: "_class"
    value {
      list {
        s: "loc:@FeatureExtractor/MobilenetV3/expanded_conv_13/project/weights"
      }
    }
  }
}
node {
  name: "FeatureExtractor/MobilenetV3/expanded_conv_13/squeeze_excite/Conv_1/mul/y"
  op: "Const"
  attr {
    key: "dtype"
    value {
      type: DT_FLOAT
    }
  }
  attr {
    key: "value"
    value {
      tensor {
        dtype: DT_FLOAT
        tensor_shape {
        }
        float_val: 0.16667
      }
    }
  }
}
node {
  name: "FeatureExtractor/MobilenetV3/expanded_conv_13/squeeze_excite/Conv_1/add/y"
  op: "Const"
  attr {
    key: "dtype"
    value {
      type: DT_FLOAT
    }
  }
  attr {
    key: "value"
    value {
      tensor {
        dtype: DT_FLOAT
        tensor_shape {
        }
        float_val: 3
      }
    }
  }
}
node {
  name: "FeatureExtractor/MobilenetV3/expanded_conv_13/squeeze_excite/Conv_1/biases"
  op: "Const"
  attr {
    key: "dtype"
    value {
      type: DT_FLOAT
    }
  }
  attr {
    key: "value"
    value {
      tensor {
        dtype: DT_FLOAT
        tensor_shape {
          dim {
            size: 480
          }
        }
      }
    }
  }
}
node {
  name: "FeatureExtractor/MobilenetV3/expanded_conv_13/squeeze_excite/Conv_1/biases/read"
  op: "Identity"
  input: "FeatureExtractor/MobilenetV3/expanded_conv_13/squeeze_excite/Conv_1/biases"
  attr {
    key: "T"
    value {
      type: DT_FLOAT
    }
  }
  attr {
    key: "_class"
    value {
      list {
        s: "loc:@FeatureExtractor/MobilenetV3/expanded_conv_13/squeeze_excite/Conv_1/biases"
      }
    }
  }
}
node {
  name: "FeatureExtractor/MobilenetV3/expanded_conv_13/squeeze_excite/Conv_1/weights"
  op: "Const"
  attr {
    key: "dtype"
    value {
      type: DT_FLOAT
    }
  }
  attr {
    key: "value"
    value {
      tensor {
        dtype: DT_FLOAT
        tensor_shape {
          dim {
            size: 1
          }
          dim {
            size: 1
          }
          dim {
            size: 120
          }
          dim {
            size: 480
          }
        }
      }
    }
  }
}
node {
  name: "FeatureExtractor/MobilenetV3/expanded_conv_13/squeeze_excite/Conv_1/weights/read"
  op: "Identity"
  input: "FeatureExtractor/MobilenetV3/expanded_conv_13/squeeze_excite/Conv_1/weights"
  attr {
    key: "T"
    value {
      type: DT_FLOAT
    }
  }
  attr {
    key: "_class"
    value {
      list {
        s: "loc:@FeatureExtractor/MobilenetV3/expanded_conv_13/squeeze_excite/Conv_1/weights"
      }
    }
  }
}
node {
  name: "FeatureExtractor/MobilenetV3/expanded_conv_13/squeeze_excite/Conv/biases"
  op: "Const"
  attr {
    key: "dtype"
    value {
      type: DT_FLOAT
    }
  }
  attr {
    key: "value"
    value {
      tensor {
        dtype: DT_FLOAT
        tensor_shape {
          dim {
            size: 120
          }
        }
      }
    }
  }
}
node {
  name: "FeatureExtractor/MobilenetV3/expanded_conv_13/squeeze_excite/Conv/biases/read"
  op: "Identity"
  input: "FeatureExtractor/MobilenetV3/expanded_conv_13/squeeze_excite/Conv/biases"
  attr {
    key: "T"
    value {
      type: DT_FLOAT
    }
  }
  attr {
    key: "_class"
    value {
      list {
        s: "loc:@FeatureExtractor/MobilenetV3/expanded_conv_13/squeeze_excite/Conv/biases"
      }
    }
  }
}
node {
  name: "FeatureExtractor/MobilenetV3/expanded_conv_13/squeeze_excite/Conv/weights"
  op: "Const"
  attr {
    key: "dtype"
    value {
      type: DT_FLOAT
    }
  }
  attr {
    key: "value"
    value {
      tensor {
        dtype: DT_FLOAT
        tensor_shape {
          dim {
            size: 1
          }
          dim {
            size: 1
          }
          dim {
            size: 480
          }
          dim {
            size: 120
          }
        }
      }
    }
  }
}
node {
  name: "FeatureExtractor/MobilenetV3/expanded_conv_13/squeeze_excite/Conv/weights/read"
  op: "Identity"
  input: "FeatureExtractor/MobilenetV3/expanded_conv_13/squeeze_excite/Conv/weights"
  attr {
    key: "T"
    value {
      type: DT_FLOAT
    }
  }
  attr {
    key: "_class"
    value {
      list {
        s: "loc:@FeatureExtractor/MobilenetV3/expanded_conv_13/squeeze_excite/Conv/weights"
      }
    }
  }
}
node {
  name: "FeatureExtractor/MobilenetV3/expanded_conv_13/squeeze_excite/Mean/reduction_indices"
  op: "Const"
  attr {
    key: "dtype"
    value {
      type: DT_INT32
    }
  }
  attr {
    key: "value"
    value {
      tensor {
        dtype: DT_INT32
        tensor_shape {
          dim {
            size: 2
          }
        }
      }
    }
  }
}
node {
  name: "FeatureExtractor/MobilenetV3/expanded_conv_13/depthwise/hard_swish/mul_1/y"
  op: "Const"
  attr {
    key: "dtype"
    value {
      type: DT_FLOAT
    }
  }
  attr {
    key: "value"
    value {
      tensor {
        dtype: DT_FLOAT
        tensor_shape {
        }
        float_val: 0.166666672
      }
    }
  }
}
node {
  name: "FeatureExtractor/MobilenetV3/expanded_conv_13/depthwise/hard_swish/add/y"
  op: "Const"
  attr {
    key: "dtype"
    value {
      type: DT_FLOAT
    }
  }
  attr {
    key: "value"
    value {
      tensor {
        dtype: DT_FLOAT
        tensor_shape {
        }
        float_val: 3
      }
    }
  }
}
node {
  name: "FeatureExtractor/MobilenetV3/expanded_conv_13/depthwise/BatchNorm/moving_variance"
  op: "Const"
  attr {
    key: "dtype"
    value {
      type: DT_FLOAT
    }
  }
  attr {
    key: "value"
    value {
      tensor {
        dtype: DT_FLOAT
        tensor_shape {
          dim {
            size: 480
          }
        }
      }
    }
  }
}
node {
  name: "FeatureExtractor/MobilenetV3/expanded_conv_13/depthwise/BatchNorm/moving_variance/read"
  op: "Identity"
  input: "FeatureExtractor/MobilenetV3/expanded_conv_13/depthwise/BatchNorm/moving_variance"
  attr {
    key: "T"
    value {
      type: DT_FLOAT
    }
  }
  attr {
    key: "_class"
    value {
      list {
        s: "loc:@FeatureExtractor/MobilenetV3/expanded_conv_13/depthwise/BatchNorm/moving_variance"
      }
    }
  }
}
node {
…
        i: 1
      }
    }
  }
}
node {
  name: "FeatureExtractor/MobilenetV3/layer_17_2_Conv2d_2_3x3_s2_512_depthwise/BatchNorm/FusedBatchNormV3"
  op: "FusedBatchNormV3"
  input: "FeatureExtractor/MobilenetV3/layer_17_2_Conv2d_2_3x3_s2_512_depthwise/depthwise"
  input: "FeatureExtractor/MobilenetV3/layer_17_2_Conv2d_2_3x3_s2_512_depthwise/BatchNorm/gamma/read"
  input: "FeatureExtractor/MobilenetV3/layer_17_2_Conv2d_2_3x3_s2_512_depthwise/BatchNorm/beta/read"
  input: "FeatureExtractor/MobilenetV3/layer_17_2_Conv2d_2_3x3_s2_512_depthwise/BatchNorm/moving_mean/read"
  input: "FeatureExtractor/MobilenetV3/layer_17_2_Conv2d_2_3x3_s2_512_depthwise/BatchNorm/moving_variance/read"
  attr {
    key: "T"
    value {
      type: DT_FLOAT
    }
  }
  attr {
    key: "U"
    value {
      type: DT_FLOAT
    }
  }
  attr {
    key: "data_format"
    value {
      s: "NHWC"
    }
  }
  attr {
    key: "epsilon"
    value {
      f: 0.001
    }
  }
  attr {
    key: "is_training"
    value {
      b: false
    }
  }
}
node {
  name: "FeatureExtractor/MobilenetV3/layer_17_2_Conv2d_2_3x3_s2_512_depthwise/Relu6"
  op: "Relu6"
  input: "FeatureExtractor/MobilenetV3/layer_17_2_Conv2d_2_3x3_s2_512_depthwise/BatchNorm/FusedBatchNormV3"
  attr {
    key: "T"
    value {
      type: DT_FLOAT
    }
  }
}
node {
  name: "FeatureExtractor/MobilenetV3/layer_17_2_Conv2d_2_3x3_s2_512/Conv2D"
  op: "Conv2D"
  input: "FeatureExtractor/MobilenetV3/layer_17_2_Conv2d_2_3x3_s2_512_depthwise/Relu6"
  input: "FeatureExtractor/MobilenetV3/layer_17_2_Conv2d_2_3x3_s2_512/weights/read"
  attr {
    key: "T"
    value {
      type: DT_FLOAT
    }
  }
  attr {
    key: "data_format"
    value {
      s: "NHWC"
    }
  }
  attr {
    key: "dilations"
    value {
      list {
        i: 1
        i: 1
        i: 1
        i: 1
      }
    }
  }
  attr {
    key: "explicit_paddings"
    value {
      list {
      }
    }
  }
  attr {
    key: "padding"
    value {
      s: "SAME"
    }
  }
  attr {
    key: "strides"
    value {
      list {
        i: 1
        i: 1
        i: 1
        i: 1
      }
    }
  }
  attr {
    key: "use_cudnn_on_gpu"
    value {
      b: true
    }
  }
}
node {
  name: "FeatureExtractor/MobilenetV3/layer_17_2_Conv2d_2_3x3_s2_512/BatchNorm/FusedBatchNormV3"
  op: "FusedBatchNormV3"
  input: "FeatureExtractor/MobilenetV3/layer_17_2_Conv2d_2_3x3_s2_512/Conv2D"
  input: "FeatureExtractor/MobilenetV3/layer_17_2_Conv2d_2_3x3_s2_512/BatchNorm/gamma/read"
  input: "FeatureExtractor/MobilenetV3/layer_17_2_Conv2d_2_3x3_s2_512/BatchNorm/beta/read"
  input: "FeatureExtractor/MobilenetV3/layer_17_2_Conv2d_2_3x3_s2_512/BatchNorm/moving_mean/read"
  input: "FeatureExtractor/MobilenetV3/layer_17_2_Conv2d_2_3x3_s2_512/BatchNorm/moving_variance/read"
  attr {
    key: "T"
    value {
      type: DT_FLOAT
    }
  }
  attr {
    key: "U"
    value {
      type: DT_FLOAT
    }
  }
  attr {
    key: "data_format"
    value {
      s: "NHWC"
    }
  }
  attr {
    key: "epsilon"
    value {
      f: 0.001
    }
  }
  attr {
    key: "is_training"
    value {
      b: false
    }
  }
}
node {
  name: "FeatureExtractor/MobilenetV3/layer_17_2_Conv2d_2_3x3_s2_512/Relu6"
  op: "Relu6"
  input: "FeatureExtractor/MobilenetV3/layer_17_2_Conv2d_2_3x3_s2_512/BatchNorm/FusedBatchNormV3"
  attr {
    key: "T"
    value {
      type: DT_FLOAT
    }
  }
}
node {
  name: "BoxPredictor_2/ClassPredictor_depthwise/depthwise"
  op: "DepthwiseConv2dNative"
  input: "FeatureExtractor/MobilenetV3/layer_17_2_Conv2d_2_3x3_s2_512/Relu6"
  input: "BoxPredictor_2/ClassPredictor_depthwise/depthwise_weights/read"
  attr {
    key: "T"
    value {
      type: DT_FLOAT
    }
  }
  attr {
    key: "data_format"
    value {
      s: "NHWC"
    }
  }
  attr {
    key: "dilations"
    value {
      list {
        i: 1
        i: 1
        i: 1
        i: 1
      }
    }
  }
  attr {
    key: "padding"
    value {
      s: "SAME"
    }
  }
  attr {
    key: "strides"
    value {
      list {
        i: 1
        i: 1
        i: 1
        i: 1
      }
    }
  }
}
node {
  name: "BoxPredictor_2/ClassPredictor_depthwise/BatchNorm/FusedBatchNormV3"
  op: "FusedBatchNormV3"
  input: "BoxPredictor_2/ClassPredictor_depthwise/depthwise"
  input: "BoxPredictor_2/ClassPredictor_depthwise/BatchNorm/gamma/read"
  input: "BoxPredictor_2/ClassPredictor_depthwise/BatchNorm/beta/read"
  input: "BoxPredictor_2/ClassPredictor_depthwise/BatchNorm/moving_mean/read"
  input: "BoxPredictor_2/ClassPredictor_depthwise/BatchNorm/moving_variance/read"
  attr {
    key: "T"
    value {
      type: DT_FLOAT
    }
  }
  attr {
    key: "U"
    value {
      type: DT_FLOAT
    }
  }
  attr {
    key: "data_format"
    value {
      s: "NHWC"
    }
  }
  attr {
    key: "epsilon"
    value {
      f: 0.001
    }
  }
  attr {
    key: "is_training"
    value {
      b: false
    }
  }
}
node {
  name: "BoxPredictor_2/ClassPredictor_depthwise/Relu6"
  op: "Relu6"
  input: "BoxPredictor_2/ClassPredictor_depthwise/BatchNorm/FusedBatchNormV3"
  attr {
    key: "T"
    value {
      type: DT_FLOAT
    }
  }
}
node {
  name: "BoxPredictor_2/ClassPredictor/Conv2D"
  op: "Conv2D"
  input: "BoxPredictor_2/ClassPredictor_depthwise/Relu6"
  input: "BoxPredictor_2/ClassPredictor/weights/read"
  attr {
    key: "T"
    value {
      type: DT_FLOAT
    }
  }
  attr {
    key: "data_format"
    value {
      s: "NHWC"
    }
  }
  attr {
    key: "dilations"
    value {
      list {
        i: 1
        i: 1
        i: 1
        i: 1
      }
    }
  }
  attr {
    key: "explicit_paddings"
    value {
      list {
      }
    }
  }
  attr {
    key: "padding"
    value {
      s: "SAME"
    }
  }
  attr {
    key: "strides"
    value {
      list {
        i: 1
        i: 1
        i: 1
        i: 1
      }
    }
  }
  attr {
    key: "use_cudnn_on_gpu"
    value {
      b: true
    }
  }
}
node {
  name: "BoxPredictor_2/ClassPredictor/BiasAdd"
  op: "BiasAdd"
  input: "BoxPredictor_2/ClassPredictor/Conv2D"
  input: "BoxPredictor_2/ClassPredictor/biases/read"
  attr {
    key: "T"
    value {
      type: DT_FLOAT
    }
  }
  attr {
    key: "data_format"
    value {
      s: "NHWC"
    }
  }
}
node {
  name: "BoxPredictor_2/Reshape_1"
  op: "Reshape"
  input: "BoxPredictor_2/ClassPredictor/BiasAdd"
  input: "BoxPredictor_2/Reshape_1/shape"
  attr {
    key: "T"
    value {
      type: DT_FLOAT
    }
  }
  attr {
    key: "Tshape"
    value {
      type: DT_INT32
    }
  }
}
node {
  name: "BoxPredictor_2/BoxEncodingPredictor_depthwise/depthwise"
  op: "DepthwiseConv2dNative"
  input: "FeatureExtractor/MobilenetV3/layer_17_2_Conv2d_2_3x3_s2_512/Relu6"
  input: "BoxPredictor_2/BoxEncodingPredictor_depthwise/depthwise_weights/read"
  attr {
    key: "T"
    value {
      type: DT_FLOAT
    }
  }
  attr {
    key: "data_format"
    value {
      s: "NHWC"
    }
  }
  attr {
    key: "dilations"
    value {
      list {
        i: 1
        i: 1
        i: 1
        i: 1
      }
    }
  }
  attr {
    key: "padding"
    value {
      s: "SAME"
    }
  }
  attr {
    key: "strides"
    value {
      list {
        i: 1
        i: 1
        i: 1
        i: 1
      }
    }
  }
}
node {
  name: "BoxPredictor_2/BoxEncodingPredictor_depthwise/BatchNorm/FusedBatchNormV3"
  op: "FusedBatchNormV3"
  input: "BoxPredictor_2/BoxEncodingPredictor_depthwise/depthwise"
  input: "BoxPredictor_2/BoxEncodingPredictor_depthwise/BatchNorm/gamma/read"
  input: "BoxPredictor_2/BoxEncodingPredictor_depthwise/BatchNorm/beta/read"
  input: "BoxPredictor_2/BoxEncodingPredictor_depthwise/BatchNorm/moving_mean/read"
  input: "BoxPredictor_2/BoxEncodingPredictor_depthwise/BatchNorm/moving_variance/read"
  attr {
    key: "T"
    value {
      type: DT_FLOAT
    }
  }
  attr {
    key: "U"
    value {
      type: DT_FLOAT
    }
  }
  attr {
    key: "data_format"
    value {
      s: "NHWC"
    }
  }
  attr {
    key: "epsilon"
    value {
      f: 0.001
    }
  }
  attr {
    key: "is_training"
    value {
      b: false
    }
  }
}
node {
  name: "BoxPredictor_2/BoxEncodingPredictor_depthwise/Relu6"
  op: "Relu6"
  input: "BoxPredictor_2/BoxEncodingPredictor_depthwise/BatchNorm/FusedBatchNormV3"
  attr {
    key: "T"
    value {
      type: DT_FLOAT
    }
  }
}
node {
  name: "BoxPredictor_2/BoxEncodingPredictor/Conv2D"
  op: "Conv2D"
  input: "BoxPredictor_2/BoxEncodingPredictor_depthwise/Relu6"
  input: "BoxPredictor_2/BoxEncodingPredictor/weights/read"
  attr {
    key: "T"
    value {
      type: DT_FLOAT
    }
  }
  attr {
    key: "data_format"
    value {
      s: "NHWC"
    }
  }
  attr {
    key: "dilations"
    value {
      list {
        i: 1
        i: 1
        i: 1
        i: 1
      }
    }
  }
  attr {
    key: "explicit_paddings"
    value {
      list {
      }
    }
  }
  attr {
    key: "padding"
    value {
      s: "SAME"
    }
  }
  attr {
    key: "strides"
    value {
      list {
        i: 1
        i: 1
        i: 1
        i: 1
      }
    }
  }
  attr {
    key: "use_cudnn_on_gpu"
    value {
      b: true
    }
  }
}
node {
  name: "BoxPredictor_2/BoxEncodingPredictor/BiasAdd"
  op: "BiasAdd"
  input: "BoxPredictor_2/BoxEncodingPredictor/Conv2D"
  input: "BoxPredictor_2/BoxEncodingPredictor/biases/read"
  attr {
    key: "T"
    value {
      type: DT_FLOAT
    }
  }
  attr {
    key: "data_format"
    value {
      s: "NHWC"
    }
  }
}
node {
  name: "BoxPredictor_2/Reshape"
  op: "Reshape"
  input: "BoxPredictor_2/BoxEncodingPredictor/BiasAdd"
  input: "BoxPredictor_2/Reshape/shape"
  attr {
    key: "T"
    value {
      type: DT_FLOAT
    }
  }
  attr {
    key: "Tshape"
    value {
      type: DT_INT32
    }
  }
}
node {
  name: "FeatureExtractor/MobilenetV3/layer_17_1_Conv2d_3_1x1_128/Conv2D"
  op: "Conv2D"
  input: "FeatureExtractor/MobilenetV3/layer_17_2_Conv2d_2_3x3_s2_512/Relu6"
  input: "FeatureExtractor/MobilenetV3/layer_17_1_Conv2d_3_1x1_128/weights/read"
  attr {
    key: "T"
    value {
      type: DT_FLOAT
    }
  }
  attr {
    key: "data_format"
    value {
      s: "NHWC"
    }
  }
  attr {
    key: "dilations"
    value {
      list {
        i: 1
        i: 1
        i: 1
        i: 1
      }
    }
  }
  attr {
    key: "explicit_paddings"
    value {
      list {
      }
    }
  }
  attr {
    key: "padding"
    value {
      s: "SAME"
    }
  }
  attr {
    key: "strides"
    value {
      list {
        i: 1
        i: 1
        i: 1
        i: 1
      }
    }
  }
  attr {
    key: "use_cudnn_on_gpu"
    value {
      b: true
    }
  }
}
node {
  name: "FeatureExtractor/MobilenetV3/layer_17_1_Conv2d_3_1x1_128/BatchNorm/FusedBatchNormV3"
  op: "FusedBatchNormV3"
  input: "FeatureExtractor/MobilenetV3/layer_17_1_Conv2d_3_1x1_128/Conv2D"
  input: "FeatureExtractor/MobilenetV3/layer_17_1_Conv2d_3_1x1_128/BatchNorm/gamma/read"
  input: "FeatureExtractor/MobilenetV3/layer_17_1_Conv2d_3_1x1_128/BatchNorm/beta/read"
  input: "FeatureExtractor/MobilenetV3/layer_17_1_Conv2d_3_1x1_128/BatchNorm/moving_mean/read"
  input: "FeatureExtractor/MobilenetV3/layer_17_1_Conv2d_3_1x1_128/BatchNorm/moving_variance/read"
  attr {
    key: "T"
    value {
      type: DT_FLOAT
    }
  }
  attr {
    key: "U"
    value {
      type: DT_FLOAT
    }
  }
  attr {
    key: "data_format"
    value {
      s: "NHWC"
    }
  }
  attr {
    key: "epsilon"
    value {
      f: 0.001
    }
  }
  attr {
    key: "is_training"
    value {
      b: false
    }
  }
}
node {
  name: "FeatureExtractor/MobilenetV3/layer_17_1_Conv2d_3_1x1_128/Relu6"
  op: "Relu6"
  input: "FeatureExtractor/MobilenetV3/layer_17_1_Conv2d_3_1x1_128/BatchNorm/FusedBatchNormV3"
  attr {
    key: "T"
    value {
      type: DT_FLOAT
    }
  }
}
node {
  name: "FeatureExtractor/MobilenetV3/layer_17_2_Conv2d_3_3x3_s2_256_depthwise/depthwise"
  op: "DepthwiseConv2dNative"
  input: "FeatureExtractor/MobilenetV3/layer_17_1_Conv2d_3_1x1_128/Relu6"
  input: "FeatureExtractor/MobilenetV3/layer_17_2_Conv2d_3_3x3_s2_256_depthwise/depthwise_weights/read"
  attr {
    key: "T"
    value {
      type: DT_FLOAT
    }
  }
  attr {
    key: "data_format"
    value {
      s: "NHWC"
    }
  }
  attr {
    key: "dilations"
    value {
      list {
        i: 1
        i: 1
        i: 1
        i: 1
      }
    }
  }
  attr {
    key: "padding"
    value {
      s: "SAME"
    }
  }
  attr {
    key: "strides"
    value {
      list {
        i: 1
        i: 2
        i: 2
        i: 1
      }
    }
  }
}
node {
  name: "FeatureExtractor/MobilenetV3/layer_17_2_Conv2d_3_3x3_s2_256_depthwise/BatchNorm/FusedBatchNormV3"
  op: "FusedBatchNormV3"
  input: "FeatureExtractor/MobilenetV3/layer_17_2_Conv2d_3_3x3_s2_256_depthwise/depthwise"
  input: "FeatureExtractor/MobilenetV3/layer_17_2_Conv2d_3_3x3_s2_256_depthwise/BatchNorm/gamma/read"
  input: "FeatureExtractor/MobilenetV3/layer_17_2_Conv2d_3_3x3_s2_256_depthwise/BatchNorm/beta/read"
  input: "FeatureExtractor/MobilenetV3/layer_17_2_Conv2d_3_3x3_s2_256_depthwise/BatchNorm/moving_mean/read"
  input: "FeatureExtractor/MobilenetV3/layer_17_2_Conv2d_3_3x3_s2_256_depthwise/BatchNorm/moving_variance/read"
  attr {
    key: "T"
    value {
      type: DT_FLOAT
    }
  }
  attr {
    key: "U"
    value {
      type: DT_FLOAT
    }
  }
  attr {
    key: "data_format"
    value {
      s: "NHWC"
    }
  }
  attr {
    key: "epsilon"
    value {
      f: 0.001
    }
  }
  attr {
    key: "is_training"
    value {
      b: false
    }
  }
}
node {
  name: "FeatureExtractor/MobilenetV3/layer_17_2_Conv2d_3_3x3_s2_256_depthwise/Relu6"
  op: "Relu6"
  input: "FeatureExtractor/MobilenetV3/layer_17_2_Conv2d_3_3x3_s2_256_depthwise/BatchNorm/FusedBatchNormV3"
  attr {
    key: "T"
    value {
      type: DT_FLOAT
    }
  }
}
node {
  name: "FeatureExtractor/MobilenetV3/layer_17_2_Conv2d_3_3x3_s2_256/Conv2D"
  op: "Conv2D"
  input: "FeatureExtractor/MobilenetV3/layer_17_2_Conv2d_3_3x3_s2_256_depthwise/Relu6"
  input: "FeatureExtractor/MobilenetV3/layer_17_2_Conv2d_3_3x3_s2_256/weights/read"
  attr {
    key: "T"
    value {
      type: DT_FLOAT
    }
  }
  attr {
    key: "data_format"
    value {
      s: "NHWC"
    }
  }
  attr {
    key: "dilations"
    value {
      list {
        i: 1
        i: 1
        i: 1
        i: 1
      }
    }
  }
  attr {
    key: "explicit_paddings"
    value {
      list {
      }
    }
  }
  attr {
    key: "padding"
    value {
      s: "SAME"
    }
  }
  attr {
    key: "strides"
    value {
      list {
        i: 1
        i: 1
        i: 1
        i: 1
      }
    }
  }
  attr {
    key: "use_cudnn_on_gpu"
    value {
      b: true
    }
  }
}
node {
  name: "FeatureExtractor/MobilenetV3/layer_17_2_Conv2d_3_3x3_s2_256/BatchNorm/FusedBatchNormV3"
  op: "FusedBatchNormV3"
  input: "FeatureExtractor/MobilenetV3/layer_17_2_Conv2d_3_3x3_s2_256/Conv2D"
  input: "FeatureExtractor/MobilenetV3/layer_17_2_Conv2d_3_3x3_s2_256/BatchNorm/gamma/read"
  input: "FeatureExtractor/MobilenetV3/layer_17_2_Conv2d_3_3x3_s2_256/BatchNorm/beta/read"
  input: "FeatureExtractor/MobilenetV3/layer_17_2_Conv2d_3_3x3_s2_256/BatchNorm/moving_mean/read"
  input: "FeatureExtractor/MobilenetV3/layer_17_2_Conv2d_3_3x3_s2_256/BatchNorm/moving_variance/read"
  attr {
    key: "T"
    value {
      type: DT_FLOAT
    }
  }
  attr {
    key: "U"
    value {
      type: DT_FLOAT
    }
  }
  attr {
    key: "data_format"
    value {
      s: "NHWC"
    }
  }
  attr {
    key: "epsilon"
    value {
      f: 0.001
    }
  }
  attr {
    key: "is_training"
    value {
      b: false
    }
  }
}
node {
  name: "FeatureExtractor/MobilenetV3/layer_17_2_Conv2d_3_3x3_s2_256/Relu6"
  op: "Relu6"
  input: "FeatureExtractor/MobilenetV3/layer_17_2_Conv2d_3_3x3_s2_256/BatchNorm/FusedBatchNormV3"
  attr {
    key: "T"
    value {
      type: DT_FLOAT
    }
  }
}
node {
  name: "BoxPredictor_3/ClassPredictor_depthwise/depthwise"
  op: "DepthwiseConv2dNative"
  input: "FeatureExtractor/MobilenetV3/layer_17_2_Conv2d_3_3x3_s2_256/Relu6"
  input: "BoxPredictor_3/ClassPredictor_depthwise/depthwise_weights/read"
  attr {
    key: "T"
    value {
      type: DT_FLOAT
    }
  }
  attr {
    key: "data_format"
    value {
      s: "NHWC"
    }
  }
  attr {
    key: "dilations"
    value {
      list {
        i: 1
        i: 1
        i: 1
        i: 1
      }
    }
  }
  attr {
    key: "padding"
    value {
      s: "SAME"
    }
  }
  attr {
    key: "strides"
    value {
      list {
        i: 1
        i: 1
        i: 1
        i: 1
      }
    }
  }
}
node {
  name: "BoxPredictor_3/ClassPredictor_depthwise/BatchNorm/FusedBatchNormV3"
  op: "FusedBatchNormV3"
  input: "BoxPredictor_3/ClassPredictor_depthwise/depthwise"
  input: "BoxPredictor_3/ClassPredictor_depthwise/BatchNorm/gamma/read"
  input: "BoxPredictor_3/ClassPredictor_depthwise/BatchNorm/beta/read"
  input: "BoxPredictor_3/ClassPredictor_depthwise/BatchNorm/moving_mean/read"
  input: "BoxPredictor_3/ClassPredictor_depthwise/BatchNorm/moving_variance/read"
  attr {
    key: "T"
    value {
      type: DT_FLOAT
    }
  }
  attr {
    key: "U"
    value {
      type: DT_FLOAT
    }
  }
  attr {
    key: "data_format"
    value {
      s: "NHWC"
    }
  }
  attr {
    key: "epsilon"
    value {
      f: 0.001
    }
  }
  attr {
    key: "is_training"
    value {
      b: false
    }
  }
}
node {
  name: "BoxPredictor_3/ClassPredictor_depthwise/Relu6"
  op: "Relu6"
  input: "BoxPredictor_3/ClassPredictor_depthwise/BatchNorm/FusedBatchNormV3"
  attr {
    key: "T"
    value {
      type: DT_FLOAT
    }
  }
}
node {
  name: "BoxPredictor_3/ClassPredictor/Conv2D"
  op: "Conv2D"
  input: "BoxPredictor_3/ClassPredictor_depthwise/Relu6"
  input: "BoxPredictor_3/ClassPredictor/weights/read"
  attr {
    key: "T"
    value {
      type: DT_FLOAT
    }
  }
  attr {
    key: "data_format"
    value {
      s: "NHWC"
    }
  }
  attr {
    key: "dilations"
    value {
      list {
        i: 1
        i: 1
        i: 1
        i: 1
      }
    }
  }
  attr {
    key: "explicit_paddings"
    value {
      list {
      }
    }
  }
  attr {
    key: "padding"
    value {
      s: "SAME"
    }
  }
  attr {
    key: "strides"
    value {
      list {
        i: 1
        i: 1
        i: 1
        i: 1
      }
    }
  }
  attr {
    key: "use_cudnn_on_gpu"
    value {
      b: true
    }
  }
}
node {
  name: "BoxPredictor_3/ClassPredictor/BiasAdd"
  op: "BiasAdd"
  input: "BoxPredictor_3/ClassPredictor/Conv2D"
  input: "BoxPredictor_3/ClassPredictor/biases/read"
  attr {
    key: "T"
    value {
      type: DT_FLOAT
    }
  }
  attr {
    key: "data_format"
    value {
      s: "NHWC"
    }
  }
}
node {
  name: "BoxPredictor_3/Reshape_1"
  op: "Reshape"
  input: "BoxPredictor_3/ClassPredictor/BiasAdd"
  input: "BoxPredictor_3/Reshape_1/shape"
  attr {
    key: "T"
    value {
      type: DT_FLOAT
    }
  }
  attr {
    key: "Tshape"
    value {
      type: DT_INT32
    }
  }
}
node {
  name: "BoxPredictor_3/BoxEncodingPredictor_depthwise/depthwise"
  op: "DepthwiseConv2dNative"
  input: "FeatureExtractor/MobilenetV3/layer_17_2_Conv2d_3_3x3_s2_256/Relu6"
  input: "BoxPredictor_3/BoxEncodingPredictor_depthwise/depthwise_weights/read"
  attr {
    key: "T"
    value {
      type: DT_FLOAT
    }
  }
  attr {
    key: "data_format"
    value {
      s: "NHWC"
    }
  }
  attr {
    key: "dilations"
    value {
      list {
        i: 1
        i: 1
        i: 1
        i: 1
      }
    }
  }
  attr {
    key: "padding"
    value {
      s: "SAME"
    }
  }
  attr {
    key: "strides"
    value {
      list {
        i: 1
        i: 1
        i: 1
        i: 1
      }
    }
  }
}
node {
  name: "BoxPredictor_3/BoxEncodingPredictor_depthwise/BatchNorm/FusedBatchNormV3"
  op: "FusedBatchNormV3"
  input: "BoxPredictor_3/BoxEncodingPredictor_depthwise/depthwise"
  input: "BoxPredictor_3/BoxEncodingPredictor_depthwise/BatchNorm/gamma/read"
  input: "BoxPredictor_3/BoxEncodingPredictor_depthwise/BatchNorm/beta/read"
  input: "BoxPredictor_3/BoxEncodingPredictor_depthwise/BatchNorm/moving_mean/read"
  input: "BoxPredictor_3/BoxEncodingPredictor_depthwise/BatchNorm/moving_variance/read"
  attr {
    key: "T"
    value {
      type: DT_FLOAT
    }
  }
  attr {
    key: "U"
    value {
      type: DT_FLOAT
    }
  }
  attr {
    key: "data_format"
    value {
      s: "NHWC"
    }
  }
  attr {
    key: "epsilon"
    value {
      f: 0.001
    }
  }
  attr {
    key: "is_training"
    value {
      b: false
    }
  }
}
node {
  name: "BoxPredictor_3/BoxEncodingPredictor_depthwise/Relu6"
  op: "Relu6"
  input: "BoxPredictor_3/BoxEncodingPredictor_depthwise/BatchNorm/FusedBatchNormV3"
  attr {
    key: "T"
    value {
      type: DT_FLOAT
    }
  }
}
node {
  name: "BoxPredictor_3/BoxEncodingPredictor/Conv2D"
  op: "Conv2D"
  input: "BoxPredictor_3/BoxEncodingPredictor_depthwise/Relu6"
  input: "BoxPredictor_3/BoxEncodingPredictor/weights/read"
  attr {
    key: "T"
    value {
      type: DT_FLOAT
    }
  }
  attr {
    key: "data_format"
    value {
      s: "NHWC"
    }
  }
  attr {
    key: "dilations"
    value {
      list {
        i: 1
        i: 1
        i: 1
        i: 1
      }
    }
  }
  attr {
    key: "explicit_paddings"
    value {
      list {
      }
    }
  }
  attr {
    key: "padding"
    value {
      s: "SAME"
    }
  }
  attr {
    key: "strides"
    value {
      list {
        i: 1
        i: 1
        i: 1
        i: 1
      }
    }
  }
  attr {
    key: "use_cudnn_on_gpu"
    value {
      b: true
    }
  }
}
node {
  name: "BoxPredictor_3/BoxEncodingPredictor/BiasAdd"
  op: "BiasAdd"
  input: "BoxPredictor_3/BoxEncodingPredictor/Conv2D"
  input: "BoxPredictor_3/BoxEncodingPredictor/biases/read"
  attr {
    key: "T"
    value {
      type: DT_FLOAT
    }
  }
  attr {
    key: "data_format"
    value {
      s: "NHWC"
    }
  }
}
node {
  name: "BoxPredictor_3/Reshape"
  op: "Reshape"
  input: "BoxPredictor_3/BoxEncodingPredictor/BiasAdd"
  input: "BoxPredictor_3/Reshape/shape"
  attr {
    key: "T"
    value {
      type: DT_FLOAT
    }
  }
  attr {
    key: "Tshape"
    value {
      type: DT_INT32
    }
  }
}
node {
  name: "FeatureExtractor/MobilenetV3/layer_17_1_Conv2d_4_1x1_128/Conv2D"
  op: "Conv2D"
  input: "FeatureExtractor/MobilenetV3/layer_17_2_Conv2d_3_3x3_s2_256/Relu6"
  input: "FeatureExtractor/MobilenetV3/layer_17_1_Conv2d_4_1x1_128/weights/read"
  attr {
    key: "T"
    value {
      type: DT_FLOAT
    }
  }
  attr {
    key: "data_format"
    value {
      s: "NHWC"
    }
  }
  attr {
    key: "dilations"
    value {
      list {
        i: 1
        i: 1
        i: 1
        i: 1
      }
    }
  }
  attr {
    key: "explicit_paddings"
    value {
      list {
      }
    }
  }
  attr {
    key: "padding"
    value {
      s: "SAME"
    }
  }
  attr {
    key: "strides"
    value {
      list {
        i: 1
        i: 1
        i: 1
        i: 1
      }
    }
  }
  attr {
    key: "use_cudnn_on_gpu"
    value {
      b: true
    }
  }
}
node {
  name: "FeatureExtractor/MobilenetV3/layer_17_1_Conv2d_4_1x1_128/BatchNorm/FusedBatchNormV3"
  op: "FusedBatchNormV3"
  input: "FeatureExtractor/MobilenetV3/layer_17_1_Conv2d_4_1x1_128/Conv2D"
  input: "FeatureExtractor/MobilenetV3/layer_17_1_Conv2d_4_1x1_128/BatchNorm/gamma/read"
  input: "FeatureExtractor/MobilenetV3/layer_17_1_Conv2d_4_1x1_128/BatchNorm/beta/read"
  input: "FeatureExtractor/MobilenetV3/layer_17_1_Conv2d_4_1x1_128/BatchNorm/moving_mean/read"
  input: "FeatureExtractor/MobilenetV3/layer_17_1_Conv2d_4_1x1_128/BatchNorm/moving_variance/read"
  attr {
    key: "T"
    value {
      type: DT_FLOAT
    }
  }
  attr {
    key: "U"
    value {
      type: DT_FLOAT
    }
  }
  attr {
    key: "data_format"
    value {
      s: "NHWC"
    }
  }
  attr {
    key: "epsilon"
    value {
      f: 0.001
    }
  }
  attr {
    key: "is_training"
    value {
      b: false
    }
  }
}
node {
  name: "FeatureExtractor/MobilenetV3/layer_17_1_Conv2d_4_1x1_128/Relu6"
  op: "Relu6"
  input: "FeatureExtractor/MobilenetV3/layer_17_1_Conv2d_4_1x1_128/BatchNorm/FusedBatchNormV3"
  attr {
    key: "T"
    value {
      type: DT_FLOAT
    }
  }
}
node {
  name: "FeatureExtractor/MobilenetV3/layer_17_2_Conv2d_4_3x3_s2_256_depthwise/depthwise"
  op: "DepthwiseConv2dNative"
  input: "FeatureExtractor/MobilenetV3/layer_17_1_Conv2d_4_1x1_128/Relu6"
  input: "FeatureExtractor/MobilenetV3/layer_17_2_Conv2d_4_3x3_s2_256_depthwise/depthwise_weights/read"
  attr {
    key: "T"
    value {
      type: DT_FLOAT
    }
  }
  attr {
    key: "data_format"
    value {
      s: "NHWC"
    }
  }
  attr {
    key: "dilations"
    value {
      list {
        i: 1
        i: 1
        i: 1
        i: 1
      }
    }
  }
  attr {
    key: "padding"
    value {
      s: "SAME"
    }
  }
  attr {
    key: "strides"
    value {
      list {
        i: 1
        i: 2
        i: 2
        i: 1
      }
    }
  }
}
node {
  name: "FeatureExtractor/MobilenetV3/layer_17_2_Conv2d_4_3x3_s2_256_depthwise/BatchNorm/FusedBatchNormV3"
  op: "FusedBatchNormV3"
  input: "FeatureExtractor/MobilenetV3/layer_17_2_Conv2d_4_3x3_s2_256_depthwise/depthwise"
  input: "FeatureExtractor/MobilenetV3/layer_17_2_Conv2d_4_3x3_s2_256_depthwise/BatchNorm/gamma/read"
  input: "FeatureExtractor/MobilenetV3/layer_17_2_Conv2d_4_3x3_s2_256_depthwise/BatchNorm/beta/read"
  input: "FeatureExtractor/MobilenetV3/layer_17_2_Conv2d_4_3x3_s2_256_depthwise/BatchNorm/moving_mean/read"
  input: "FeatureExtractor/MobilenetV3/layer_17_2_Conv2d_4_3x3_s2_256_depthwise/BatchNorm/moving_variance/read"
  attr {
    key: "T"
    value {
      type: DT_FLOAT
    }
  }
  attr {
    key: "U"
    value {
      type: DT_FLOAT
    }
  }
  attr {
    key: "data_format"
    value {
      s: "NHWC"
    }
  }
  attr {
    key: "epsilon"
    value {
      f: 0.001
    }
  }
  attr {
    key: "is_training"
    value {
      b: false
    }
  }
}
node {
  name: "FeatureExtractor/MobilenetV3/layer_17_2_Conv2d_4_3x3_s2_256_depthwise/Relu6"
  op: "Relu6"
  input: "FeatureExtractor/MobilenetV3/layer_17_2_Conv2d_4_3x3_s2_256_depthwise/BatchNorm/FusedBatchNormV3"
  attr {
    key: "T"
    value {
      type: DT_FLOAT
    }
  }
}
node {
  name: "FeatureExtractor/MobilenetV3/layer_17_2_Conv2d_4_3x3_s2_256/Conv2D"
  op: "Conv2D"
  input: "FeatureExtractor/MobilenetV3/layer_17_2_Conv2d_4_3x3_s2_256_depthwise/Relu6"
  input: "FeatureExtractor/MobilenetV3/layer_17_2_Conv2d_4_3x3_s2_256/weights/read"
  attr {
    key: "T"
    value {
      type: DT_FLOAT
    }
  }
  attr {
    key: "data_format"
    value {
      s: "NHWC"
    }
  }
  attr {
    key: "dilations"
    value {
      list {
        i: 1
        i: 1
        i: 1
        i: 1
      }
    }
  }
  attr {
    key: "explicit_paddings"
    value {
      list {
      }
    }
  }
  attr {
    key: "padding"
    value {
      s: "SAME"
    }
  }
  attr {
    key: "strides"
    value {
      list {
        i: 1
        i: 1
        i: 1
        i: 1
      }
    }
  }
  attr {
    key: "use_cudnn_on_gpu"
    value {
      b: true
    }
  }
}
node {
  name: "FeatureExtractor/MobilenetV3/layer_17_2_Conv2d_4_3x3_s2_256/BatchNorm/FusedBatchNormV3"
  op: "FusedBatchNormV3"
  input: "FeatureExtractor/MobilenetV3/layer_17_2_Conv2d_4_3x3_s2_256/Conv2D"
  input: "FeatureExtractor/MobilenetV3/layer_17_2_Conv2d_4_3x3_s2_256/BatchNorm/gamma/read"
  input: "FeatureExtractor/MobilenetV3/layer_17_2_Conv2d_4_3x3_s2_256/BatchNorm/beta/read"
  input: "FeatureExtractor/MobilenetV3/layer_17_2_Conv2d_4_3x3_s2_256/BatchNorm/moving_mean/read"
  input: "FeatureExtractor/MobilenetV3/layer_17_2_Conv2d_4_3x3_s2_256/BatchNorm/moving_variance/read"
  attr {
    key: "T"
    value {
      type: DT_FLOAT
    }
  }
  attr {
    key: "U"
    value {
      type: DT_FLOAT
    }
  }
  attr {
    key: "data_format"
    value {
      s: "NHWC"
    }
  }
  attr {
    key: "epsilon"
    value {
      f: 0.001
    }
  }
  attr {
    key: "is_training"
    value {
      b: false
    }
  }
}
node {
  name: "FeatureExtractor/MobilenetV3/layer_17_2_Conv2d_4_3x3_s2_256/Relu6"
  op: "Relu6"
  input: "FeatureExtractor/MobilenetV3/layer_17_2_Conv2d_4_3x3_s2_256/BatchNorm/FusedBatchNormV3"
  attr {
    key: "T"
    value {
      type: DT_FLOAT
    }
  }
}
node {
  name: "BoxPredictor_4/ClassPredictor_depthwise/depthwise"
  op: "DepthwiseConv2dNative"
  input: "FeatureExtractor/MobilenetV3/layer_17_2_Conv2d_4_3x3_s2_256/Relu6"
  input: "BoxPredictor_4/ClassPredictor_depthwise/depthwise_weights/read"
  attr {
    key: "T"
    value {
      type: DT_FLOAT
    }
  }
  attr {
    key: "data_format"
    value {
      s: "NHWC"
    }
  }
  attr {
    key: "dilations"
    value {
      list {
        i: 1
        i: 1
        i: 1
        i: 1
      }
    }
  }
  attr {
    key: "padding"
    value {
      s: "SAME"
    }
  }
  attr {
    key: "strides"
    value {
      list {
        i: 1
        i: 1
        i: 1
        i: 1
      }
    }
  }
}
node {
  name: "BoxPredictor_4/ClassPredictor_depthwise/BatchNorm/FusedBatchNormV3"
  op: "FusedBatchNormV3"
  input: "BoxPredictor_4/ClassPredictor_depthwise/depthwise"
  input: "BoxPredictor_4/ClassPredictor_depthwise/BatchNorm/gamma/read"
  input: "BoxPredictor_4/ClassPredictor_depthwise/BatchNorm/beta/read"
  input: "BoxPredictor_4/ClassPredictor_depthwise/BatchNorm/moving_mean/read"
  input: "BoxPredictor_4/ClassPredictor_depthwise/BatchNorm/moving_variance/read"
  attr {
    key: "T"
    value {
      type: DT_FLOAT
    }
  }
  attr {
    key: "U"
    value {
      type: DT_FLOAT
    }
  }
  attr {
    key: "data_format"
    value {
      s: "NHWC"
    }
  }
  attr {
    key: "epsilon"
    value {
      f: 0.001
    }
  }
  attr {
    key: "is_training"
    value {
      b: false
    }
  }
}
node {
  name: "BoxPredictor_4/ClassPredictor_depthwise/Relu6"
  op: "Relu6"
  input: "BoxPredictor_4/ClassPredictor_depthwise/BatchNorm/FusedBatchNormV3"
  attr {
    key: "T"
    value {
      type: DT_FLOAT
    }
  }
}
node {
  name: "BoxPredictor_4/ClassPredictor/Conv2D"
  op: "Conv2D"
  input: "BoxPredictor_4/ClassPredictor_depthwise/Relu6"
  input: "BoxPredictor_4/ClassPredictor/weights/read"
  attr {
    key: "T"
    value {
      type: DT_FLOAT
    }
  }
  attr {
    key: "data_format"
    value {
      s: "NHWC"
    }
  }
  attr {
    key: "dilations"
    value {
      list {
        i: 1
        i: 1
        i: 1
        i: 1
      }
    }
  }
  attr {
    key: "explicit_paddings"
    value {
      list {
      }
    }
  }
  attr {
    key: "padding"
    value {
      s: "SAME"
    }
  }
  attr {
    key: "strides"
    value {
      list {
        i: 1
        i: 1
        i: 1
        i: 1
      }
    }
  }
  attr {
    key: "use_cudnn_on_gpu"
    value {
      b: true
    }
  }
}
node {
  name: "BoxPredictor_4/ClassPredictor/BiasAdd"
  op: "BiasAdd"
  input: "BoxPredictor_4/ClassPredictor/Conv2D"
  input: "BoxPredictor_4/ClassPredictor/biases/read"
  attr {
    key: "T"
    value {
      type: DT_FLOAT
    }
  }
  attr {
    key: "data_format"
    value {
      s: "NHWC"
    }
  }
}
node {
  name: "BoxPredictor_4/Reshape_1"
  op: "Reshape"
  input: "BoxPredictor_4/ClassPredictor/BiasAdd"
  input: "BoxPredictor_4/Reshape_1/shape"
  attr {
    key: "T"
    value {
      type: DT_FLOAT
    }
  }
  attr {
    key: "Tshape"
    value {
      type: DT_INT32
    }
  }
}
node {
  name: "BoxPredictor_4/BoxEncodingPredictor_depthwise/depthwise"
  op: "DepthwiseConv2dNative"
  input: "FeatureExtractor/MobilenetV3/layer_17_2_Conv2d_4_3x3_s2_256/Relu6"
  input: "BoxPredictor_4/BoxEncodingPredictor_depthwise/depthwise_weights/read"
  attr {
    key: "T"
    value {
      type: DT_FLOAT
    }
  }
  attr {
    key: "data_format"
    value {
      s: "NHWC"
    }
  }
  attr {
    key: "dilations"
    value {
      list {
        i: 1
        i: 1
        i: 1
        i: 1
      }
    }
  }
  attr {
    key: "padding"
    value {
      s: "SAME"
    }
  }
  attr {
    key: "strides"
    value {
      list {
        i: 1
        i: 1
        i: 1
        i: 1
      }
    }
  }
}
node {
  name: "BoxPredictor_4/BoxEncodingPredictor_depthwise/BatchNorm/FusedBatchNormV3"
  op: "FusedBatchNormV3"
  input: "BoxPredictor_4/BoxEncodingPredictor_depthwise/depthwise"
  input: "BoxPredictor_4/BoxEncodingPredictor_depthwise/BatchNorm/gamma/read"
  input: "BoxPredictor_4/BoxEncodingPredictor_depthwise/BatchNorm/beta/read"
  input: "BoxPredictor_4/BoxEncodingPredictor_depthwise/BatchNorm/moving_mean/read"
  input: "BoxPredictor_4/BoxEncodingPredictor_depthwise/BatchNorm/moving_variance/read"
  attr {
    key: "T"
    value {
      type: DT_FLOAT
    }
  }
  attr {
    key: "U"
    value {
      type: DT_FLOAT
    }
  }
  attr {
    key: "data_format"
    value {
      s: "NHWC"
    }
  }
  attr {
    key: "epsilon"
    value {
      f: 0.001
    }
  }
  attr {
    key: "is_training"
    value {
      b: false
    }
  }
}
node {
  name: "BoxPredictor_4/BoxEncodingPredictor_depthwise/Relu6"
  op: "Relu6"
  input: "BoxPredictor_4/BoxEncodingPredictor_depthwise/BatchNorm/FusedBatchNormV3"
  attr {
    key: "T"
    value {
      type: DT_FLOAT
    }
  }
}
node {
  name: "BoxPredictor_4/BoxEncodingPredictor/Conv2D"
  op: "Conv2D"
  input: "BoxPredictor_4/BoxEncodingPredictor_depthwise/Relu6"
  input: "BoxPredictor_4/BoxEncodingPredictor/weights/read"
  attr {
    key: "T"
    value {
      type: DT_FLOAT
    }
  }
  attr {
    key: "data_format"
    value {
      s: "NHWC"
    }
  }
  attr {
    key: "dilations"
    value {
      list {
        i: 1
        i: 1
        i: 1
        i: 1
      }
    }
  }
  attr {
    key: "explicit_paddings"
    value {
      list {
      }
    }
  }
  attr {
    key: "padding"
    value {
      s: "SAME"
    }
  }
  attr {
    key: "strides"
    value {
      list {
        i: 1
        i: 1
        i: 1
        i: 1
      }
    }
  }
  attr {
    key: "use_cudnn_on_gpu"
    value {
      b: true
    }
  }
}
node {
  name: "BoxPredictor_4/BoxEncodingPredictor/BiasAdd"
  op: "BiasAdd"
  input: "BoxPredictor_4/BoxEncodingPredictor/Conv2D"
  input: "BoxPredictor_4/BoxEncodingPredictor/biases/read"
  attr {
    key: "T"
    value {
      type: DT_FLOAT
    }
  }
  attr {
    key: "data_format"
    value {
      s: "NHWC"
    }
  }
}
node {
  name: "BoxPredictor_4/Reshape"
  op: "Reshape"
  input: "BoxPredictor_4/BoxEncodingPredictor/BiasAdd"
  input: "BoxPredictor_4/Reshape/shape"
  attr {
    key: "T"
    value {
      type: DT_FLOAT
    }
  }
  attr {
    key: "Tshape"
    value {
      type: DT_INT32
    }
  }
}
node {
  name: "FeatureExtractor/MobilenetV3/layer_17_1_Conv2d_5_1x1_64/Conv2D"
  op: "Conv2D"
  input: "FeatureExtractor/MobilenetV3/layer_17_2_Conv2d_4_3x3_s2_256/Relu6"
  input: "FeatureExtractor/MobilenetV3/layer_17_1_Conv2d_5_1x1_64/weights/read"
  attr {
    key: "T"
    value {
      type: DT_FLOAT
    }
  }
  attr {
    key: "data_format"
    value {
      s: "NHWC"
    }
  }
  attr {
    key: "dilations"
    value {
      list {
        i: 1
        i: 1
        i: 1
        i: 1
      }
    }
  }
  attr {
    key: "explicit_paddings"
    value {
      list {
      }
    }
  }
  attr {
    key: "padding"
    value {
      s: "SAME"
    }
  }
  attr {
    key: "strides"
    value {
      list {
        i: 1
        i: 1
        i: 1
        i: 1
      }
    }
  }
  attr {
    key: "use_cudnn_on_gpu"
    value {
      b: true
    }
  }
}
node {
  name: "FeatureExtractor/MobilenetV3/layer_17_1_Conv2d_5_1x1_64/BatchNorm/FusedBatchNormV3"
  op: "FusedBatchNormV3"
  input: "FeatureExtractor/MobilenetV3/layer_17_1_Conv2d_5_1x1_64/Conv2D"
  input: "FeatureExtractor/MobilenetV3/layer_17_1_Conv2d_5_1x1_64/BatchNorm/gamma/read"
  input: "FeatureExtractor/MobilenetV3/layer_17_1_Conv2d_5_1x1_64/BatchNorm/beta/read"
  input: "FeatureExtractor/MobilenetV3/layer_17_1_Conv2d_5_1x1_64/BatchNorm/moving_mean/read"
  input: "FeatureExtractor/MobilenetV3/layer_17_1_Conv2d_5_1x1_64/BatchNorm/moving_variance/read"
  attr {
    key: "T"
    value {
      type: DT_FLOAT
    }
  }
  attr {
    key: "U"
    value {
      type: DT_FLOAT
    }
  }
  attr {
    key: "data_format"
    value {
      s: "NHWC"
    }
  }
  attr {
    key: "epsilon"
    value {
      f: 0.001
    }
  }
  attr {
    key: "is_training"
    value {
      b: false
    }
  }
}
node {
  name: "FeatureExtractor/MobilenetV3/layer_17_1_Conv2d_5_1x1_64/Relu6"
  op: "Relu6"
  input: "FeatureExtractor/MobilenetV3/layer_17_1_Conv2d_5_1x1_64/BatchNorm/FusedBatchNormV3"
  attr {
    key: "T"
    value {
      type: DT_FLOAT
    }
  }
}
node {
  name: "FeatureExtractor/MobilenetV3/layer_17_2_Conv2d_5_3x3_s2_128_depthwise/depthwise"
  op: "DepthwiseConv2dNative"
  input: "FeatureExtractor/MobilenetV3/layer_17_1_Conv2d_5_1x1_64/Relu6"
  input: "FeatureExtractor/MobilenetV3/layer_17_2_Conv2d_5_3x3_s2_128_depthwise/depthwise_weights/read"
  attr {
    key: "T"
    value {
      type: DT_FLOAT
    }
  }
  attr {
    key: "data_format"
    value {
      s: "NHWC"
    }
  }
  attr {
    key: "dilations"
    value {
      list {
        i: 1
        i: 1
        i: 1
        i: 1
      }
    }
  }
  attr {
    key: "padding"
    value {
      s: "SAME"
    }
  }
  attr {
    key: "strides"
    value {
      list {
        i: 1
        i: 2
        i: 2
        i: 1
      }
    }
  }
}
node {
  name: "FeatureExtractor/MobilenetV3/layer_17_2_Conv2d_5_3x3_s2_128_depthwise/BatchNorm/FusedBatchNormV3"
  op: "FusedBatchNormV3"
  input: "FeatureExtractor/MobilenetV3/layer_17_2_Conv2d_5_3x3_s2_128_depthwise/depthwise"
  input: "FeatureExtractor/MobilenetV3/layer_17_2_Conv2d_5_3x3_s2_128_depthwise/BatchNorm/gamma/read"
  input: "FeatureExtractor/MobilenetV3/layer_17_2_Conv2d_5_3x3_s2_128_depthwise/BatchNorm/beta/read"
  input: "FeatureExtractor/MobilenetV3/layer_17_2_Conv2d_5_3x3_s2_128_depthwise/BatchNorm/moving_mean/read"
  input: "FeatureExtractor/MobilenetV3/layer_17_2_Conv2d_5_3x3_s2_128_depthwise/BatchNorm/moving_variance/read"
  attr {
    key: "T"
    value {
      type: DT_FLOAT
    }
  }
  attr {
    key: "U"
    value {
      type: DT_FLOAT
    }
  }
  attr {
    key: "data_format"
    value {
      s: "NHWC"
    }
  }
  attr {
    key: "epsilon"
    value {
      f: 0.001
    }
  }
  attr {
    key: "is_training"
    value {
      b: false
    }
  }
}
node {
  name: "FeatureExtractor/MobilenetV3/layer_17_2_Conv2d_5_3x3_s2_128_depthwise/Relu6"
  op: "Relu6"
  input: "FeatureExtractor/MobilenetV3/layer_17_2_Conv2d_5_3x3_s2_128_depthwise/BatchNorm/FusedBatchNormV3"
  attr {
    key: "T"
    value {
      type: DT_FLOAT
    }
  }
}
node {
  name: "FeatureExtractor/MobilenetV3/layer_17_2_Conv2d_5_3x3_s2_128/Conv2D"
  op: "Conv2D"
  input: "FeatureExtractor/MobilenetV3/layer_17_2_Conv2d_5_3x3_s2_128_depthwise/Relu6"
  input: "FeatureExtractor/MobilenetV3/layer_17_2_Conv2d_5_3x3_s2_128/weights/read"
  attr {
    key: "T"
    value {
      type: DT_FLOAT
    }
  }
  attr {
    key: "data_format"
    value {
      s: "NHWC"
    }
  }
  attr {
    key: "dilations"
    value {
      list {
        i: 1
        i: 1
        i: 1
        i: 1
      }
    }
  }
  attr {
    key: "explicit_paddings"
    value {
      list {
      }
    }
  }
  attr {
    key: "padding"
    value {
      s: "SAME"
    }
  }
  attr {
    key: "strides"
    value {
      list {
        i: 1
        i: 1
        i: 1
        i: 1
      }
    }
  }
  attr {
    key: "use_cudnn_on_gpu"
    value {
      b: true
    }
  }
}
node {
  name: "FeatureExtractor/MobilenetV3/layer_17_2_Conv2d_5_3x3_s2_128/BatchNorm/FusedBatchNormV3"
  op: "FusedBatchNormV3"
  input: "FeatureExtractor/MobilenetV3/layer_17_2_Conv2d_5_3x3_s2_128/Conv2D"
  input: "FeatureExtractor/MobilenetV3/layer_17_2_Conv2d_5_3x3_s2_128/BatchNorm/gamma/read"
  input: "FeatureExtractor/MobilenetV3/layer_17_2_Conv2d_5_3x3_s2_128/BatchNorm/beta/read"
  input: "FeatureExtractor/MobilenetV3/layer_17_2_Conv2d_5_3x3_s2_128/BatchNorm/moving_mean/read"
  input: "FeatureExtractor/MobilenetV3/layer_17_2_Conv2d_5_3x3_s2_128/BatchNorm/moving_variance/read"
  attr {
    key: "T"
    value {
      type: DT_FLOAT
    }
  }
  attr {
    key: "U"
    value {
      type: DT_FLOAT
    }
  }
  attr {
    key: "data_format"
    value {
      s: "NHWC"
    }
  }
  attr {
    key: "epsilon"
    value {
      f: 0.001
    }
  }
  attr {
    key: "is_training"
    value {
      b: false
    }
  }
}
node {
  name: "FeatureExtractor/MobilenetV3/layer_17_2_Conv2d_5_3x3_s2_128/Relu6"
  op: "Relu6"
  input: "FeatureExtractor/MobilenetV3/layer_17_2_Conv2d_5_3x3_s2_128/BatchNorm/FusedBatchNormV3"
  attr {
    key: "T"
    value {
      type: DT_FLOAT
    }
  }
}
node {
  name: "BoxPredictor_5/ClassPredictor_depthwise/depthwise"
  op: "DepthwiseConv2dNative"
  input: "FeatureExtractor/MobilenetV3/layer_17_2_Conv2d_5_3x3_s2_128/Relu6"
  input: "BoxPredictor_5/ClassPredictor_depthwise/depthwise_weights/read"
  attr {
    key: "T"
    value {
      type: DT_FLOAT
    }
  }
  attr {
    key: "data_format"
    value {
      s: "NHWC"
    }
  }
  attr {
    key: "dilations"
    value {
      list {
        i: 1
        i: 1
        i: 1
        i: 1
      }
    }
  }
  attr {
    key: "padding"
    value {
      s: "SAME"
    }
  }
  attr {
    key: "strides"
    value {
      list {
        i: 1
        i: 1
        i: 1
        i: 1
      }
    }
  }
}
node {
  name: "BoxPredictor_5/ClassPredictor_depthwise/BatchNorm/FusedBatchNormV3"
  op: "FusedBatchNormV3"
  input: "BoxPredictor_5/ClassPredictor_depthwise/depthwise"
  input: "BoxPredictor_5/ClassPredictor_depthwise/BatchNorm/gamma/read"
  input: "BoxPredictor_5/ClassPredictor_depthwise/BatchNorm/beta/read"
  input: "BoxPredictor_5/ClassPredictor_depthwise/BatchNorm/moving_mean/read"
  input: "BoxPredictor_5/ClassPredictor_depthwise/BatchNorm/moving_variance/read"
  attr {
    key: "T"
    value {
      type: DT_FLOAT
    }
  }
  attr {
    key: "U"
    value {
      type: DT_FLOAT
    }
  }
  attr {
    key: "data_format"
    value {
      s: "NHWC"
    }
  }
  attr {
    key: "epsilon"
    value {
      f: 0.001
    }
  }
  attr {
    key: "is_training"
    value {
      b: false
    }
  }
}
node {
  name: "BoxPredictor_5/ClassPredictor_depthwise/Relu6"
  op: "Relu6"
  input: "BoxPredictor_5/ClassPredictor_depthwise/BatchNorm/FusedBatchNormV3"
  attr {
    key: "T"
    value {
      type: DT_FLOAT
    }
  }
}
node {
  name: "BoxPredictor_5/ClassPredictor/Conv2D"
  op: "Conv2D"
  input: "BoxPredictor_5/ClassPredictor_depthwise/Relu6"
  input: "BoxPredictor_5/ClassPredictor/weights/read"
  attr {
    key: "T"
    value {
      type: DT_FLOAT
    }
  }
  attr {
    key: "data_format"
    value {
      s: "NHWC"
    }
  }
  attr {
    key: "dilations"
    value {
      list {
        i: 1
        i: 1
        i: 1
        i: 1
      }
    }
  }
  attr {
    key: "explicit_paddings"
    value {
      list {
      }
    }
  }
  attr {
    key: "padding"
    value {
      s: "SAME"
    }
  }
  attr {
    key: "strides"
    value {
      list {
        i: 1
        i: 1
        i: 1
        i: 1
      }
    }
  }
  attr {
    key: "use_cudnn_on_gpu"
    value {
      b: true
    }
  }
}
node {
  name: "BoxPredictor_5/ClassPredictor/BiasAdd"
  op: "BiasAdd"
  input: "BoxPredictor_5/ClassPredictor/Conv2D"
  input: "BoxPredictor_5/ClassPredictor/biases/read"
  attr {
    key: "T"
    value {
      type: DT_FLOAT
    }
  }
  attr {
    key: "data_format"
    value {
      s: "NHWC"
    }
  }
}
node {
  name: "BoxPredictor_5/Reshape_1"
  op: "Reshape"
  input: "BoxPredictor_5/ClassPredictor/BiasAdd"
  input: "BoxPredictor_5/Reshape_1/shape"
  attr {
    key: "T"
    value {
      type: DT_FLOAT
    }
  }
  attr {
    key: "Tshape"
    value {
      type: DT_INT32
    }
  }
}
node {
  name: "concat_1"
  op: "ConcatV2"
  input: "BoxPredictor_0/Reshape_1"
  input: "BoxPredictor_1/Reshape_1"
  input: "BoxPredictor_2/Reshape_1"
  input: "BoxPredictor_3/Reshape_1"
  input: "BoxPredictor_4/Reshape_1"
  input: "BoxPredictor_5/Reshape_1"
  input: "concat_1/axis"
  attr {
    key: "N"
    value {
      i: 6
    }
  }
  attr {
    key: "T"
    value {
      type: DT_FLOAT
    }
  }
  attr {
    key: "Tidx"
    value {
      type: DT_INT32
    }
  }
}
node {
  name: "scale_logits"
  op: "RealDiv"
  input: "concat_1"
  input: "scale_logits/y"
  attr {
    key: "T"
    value {
      type: DT_FLOAT
    }
  }
}
node {
  name: "convert_scores"
  op: "Sigmoid"
  input: "scale_logits"
  attr {
    key: "T"
    value {
      type: DT_FLOAT
    }
  }
}
node {
  name: "raw_outputs/class_predictions"
  op: "Identity"
  input: "convert_scores"
  attr {
    key: "T"
    value {
      type: DT_FLOAT
    }
  }
}
node {
  name: "BoxPredictor_5/BoxEncodingPredictor_depthwise/depthwise"
  op: "DepthwiseConv2dNative"
  input: "FeatureExtractor/MobilenetV3/layer_17_2_Conv2d_5_3x3_s2_128/Relu6"
  input: "BoxPredictor_5/BoxEncodingPredictor_depthwise/depthwise_weights/read"
  attr {
    key: "T"
    value {
      type: DT_FLOAT
    }
  }
  attr {
    key: "data_format"
    value {
      s: "NHWC"
    }
  }
  attr {
    key: "dilations"
    value {
      list {
        i: 1
        i: 1
        i: 1
        i: 1
      }
    }
  }
  attr {
    key: "padding"
    value {
      s: "SAME"
    }
  }
  attr {
    key: "strides"
    value {
      list {
        i: 1
        i: 1
        i: 1
        i: 1
      }
    }
  }
}
node {
  name: "BoxPredictor_5/BoxEncodingPredictor_depthwise/BatchNorm/FusedBatchNormV3"
  op: "FusedBatchNormV3"
  input: "BoxPredictor_5/BoxEncodingPredictor_depthwise/depthwise"
  input: "BoxPredictor_5/BoxEncodingPredictor_depthwise/BatchNorm/gamma/read"
  input: "BoxPredictor_5/BoxEncodingPredictor_depthwise/BatchNorm/beta/read"
  input: "BoxPredictor_5/BoxEncodingPredictor_depthwise/BatchNorm/moving_mean/read"
  input: "BoxPredictor_5/BoxEncodingPredictor_depthwise/BatchNorm/moving_variance/read"
  attr {
    key: "T"
    value {
      type: DT_FLOAT
    }
  }
  attr {
    key: "U"
    value {
      type: DT_FLOAT
    }
  }
  attr {
    key: "data_format"
    value {
      s: "NHWC"
    }
  }
  attr {
    key: "epsilon"
    value {
      f: 0.001
    }
  }
  attr {
    key: "is_training"
    value {
      b: false
    }
  }
}
node {
  name: "BoxPredictor_5/BoxEncodingPredictor_depthwise/Relu6"
  op: "Relu6"
  input: "BoxPredictor_5/BoxEncodingPredictor_depthwise/BatchNorm/FusedBatchNormV3"
  attr {
    key: "T"
    value {
      type: DT_FLOAT
    }
  }
}
node {
  name: "BoxPredictor_5/BoxEncodingPredictor/Conv2D"
  op: "Conv2D"
  input: "BoxPredictor_5/BoxEncodingPredictor_depthwise/Relu6"
  input: "BoxPredictor_5/BoxEncodingPredictor/weights/read"
  attr {
    key: "T"
    value {
      type: DT_FLOAT
    }
  }
  attr {
    key: "data_format"
    value {
      s: "NHWC"
    }
  }
  attr {
    key: "dilations"
    value {
      list {
        i: 1
        i: 1
        i: 1
        i: 1
      }
    }
  }
  attr {
    key: "explicit_paddings"
    value {
      list {
      }
    }
  }
  attr {
    key: "padding"
    value {
      s: "SAME"
    }
  }
  attr {
    key: "strides"
    value {
      list {
        i: 1
        i: 1
        i: 1
        i: 1
      }
    }
  }
  attr {
    key: "use_cudnn_on_gpu"
    value {
      b: true
    }
  }
}
node {
  name: "BoxPredictor_5/BoxEncodingPredictor/BiasAdd"
  op: "BiasAdd"
  input: "BoxPredictor_5/BoxEncodingPredictor/Conv2D"
  input: "BoxPredictor_5/BoxEncodingPredictor/biases/read"
  attr {
    key: "T"
    value {
      type: DT_FLOAT
    }
  }
  attr {
    key: "data_format"
    value {
      s: "NHWC"
    }
  }
}
node {
  name: "BoxPredictor_5/Reshape"
  op: "Reshape"
  input: "BoxPredictor_5/BoxEncodingPredictor/BiasAdd"
  input: "BoxPredictor_5/Reshape/shape"
  attr {
    key: "T"
    value {
      type: DT_FLOAT
    }
  }
  attr {
    key: "Tshape"
    value {
      type: DT_INT32
    }
  }
}
node {
  name: "concat"
  op: "ConcatV2"
  input: "BoxPredictor_0/Reshape"
  input: "BoxPredictor_1/Reshape"
  input: "BoxPredictor_2/Reshape"
  input: "BoxPredictor_3/Reshape"
  input: "BoxPredictor_4/Reshape"
  input: "BoxPredictor_5/Reshape"
  input: "concat/axis"
  attr {
    key: "N"
    value {
      i: 6
    }
  }
  attr {
    key: "T"
    value {
      type: DT_FLOAT
    }
  }
  attr {
    key: "Tidx"
    value {
      type: DT_INT32
    }
  }
}
node {
  name: "Squeeze"
  op: "Squeeze"
  input: "concat"
  attr {
    key: "T"
    value {
      type: DT_FLOAT
    }
  }
  attr {
    key: "squeeze_dims"
    value {
      list {
        i: 2
      }
    }
  }
}
node {
  name: "raw_outputs/box_encodings"
  op: "Identity"
  input: "Squeeze"
  attr {
    key: "T"
    value {
      type: DT_FLOAT
    }
  }
}
node {
  name: "TFLite_Detection_PostProcess"
  op: "TFLite_Detection_PostProcess"
  input: "raw_outputs/box_encodings"
  input: "raw_outputs/class_predictions"
  input: "anchors"
  attr {
    key: "_output_quantized"
    value {
      b: true
    }
  }
  attr {
    key: "_output_types"
    value {
      list {
        type: DT_FLOAT
        type: DT_FLOAT
        type: DT_FLOAT
        type: DT_FLOAT
      }
    }
  }
  attr {
    key: "_support_output_type_float_in_quantized_op"
    value {
      b: true
    }
  }
  attr {
    key: "detections_per_class"
    value {
      i: 100
    }
  }
  attr {
    key: "h_scale"
    value {
      f: 5
    }
  }
  attr {
    key: "max_classes_per_detection"
    value {
      i: 1
    }
  }
  attr {
    key: "max_detections"
    value {
      i: 100
    }
  }
  attr {
    key: "nms_iou_threshold"
    value {
      f: 0.6
    }
  }
  attr {
    key: "nms_score_threshold"
    value {
      f: 1e-08
    }
  }
  attr {
    key: "num_classes"
    value {
      i: 90
    }
  }
  attr {
    key: "use_regular_nms"
    value {
      b: false
    }
  }
  attr {
    key: "w_scale"
    value {
      f: 5
    }
  }
  attr {
    key: "x_scale"
    value {
      f: 10
    }
  }
  attr {
    key: "y_scale"
    value {
      f: 10
    }
  }
}
library {
}
